data/comparison_dqn_model_run_1.pth (torch, 3816 bytes, 4 tensors)

fc1.weight f4 [64, 2]
0	0x3f850037	1.039069
1	0xc05021dc	-3.2520666
2	0x3f9856dd	1.1901509
3	0xc052a517	-3.2913263
4	0x3f8d6212	1.1045554
5	0xc028dcd6	-2.6384788
6	0xbef7f18d	-0.48426476
7	0x3e9322d0	0.28737497
8	0xbeeeb0cc	-0.4661926
9	0x3e17e854	0.1483472
10	0x3ddf4658	0.10902089
11	0xbdaa2ae8	-0.08308965
12	0x3f2f1dce	0.68404853
13	0xc08f2199	-4.4728513
14	0x3fa41dc8	1.2821589
15	0xc083b975	-4.116389
16	0x3e3f8510	0.18703103
17	0xbf2473cd	-0.642392
18	0x3e233634	0.15938646
19	0xbf09e052	-0.5385791
20	0xbeddb6e9	-0.43303612
21	0xc1c50703	-24.628424
22	0x3f3ec1cc	0.7451446
23	0xc03f6f99	-2.9911864
24	0xbd337f70	-0.043822706
25	0xbe3ae9ac	-0.18253201
26	0x3f2c0b5c	0.67204833
27	0xc086c937	-4.2120624
28	0xbfef4491	-1.86928
29	0xc1e8609c	-29.047173
30	0x3e9d69ee	0.3074488
31	0xbed35dbb	-0.41282448
32	0x3f0584e9	0.5215593
33	0xc0892d6c	-4.2867947
34	0x3d825488	0.06363779
35	0x3efb181a	0.49041826
36	0x40ae2cb0	5.442955
37	0x41543ca2	13.264803
38	0x3e52e2b4	0.20594293
39	0xbe242138	-0.16028297
40	0x3e504d02	0.20341876
41	0xc0797f47	-3.8983934
42	0x3f92a98d	1.1457993
43	0xc0a03ceb	-5.0074363
44	0xbee5e6c2	-0.44902617
45	0xbfcb86f9	-1.5900565
46	0xbe03d15e	-0.12872836
47	0xc0377387	-2.8664262
48	0x3eb74c6a	0.35800487
49	0xbe8af78e	-0.27141994
50	0x3daed378	0.08536428
51	0xbdb08ca0	-0.08620572
52	0x3f225dd5	0.63424426
53	0x3d841ce8	0.06450826
54	0xbe93687f	-0.28790662
55	0x3ea8b753	0.32952365
56	0x3fa4298e	1.2825181
57	0xc08dc5e9	-4.430409
58	0xbe09a3e5	-0.13441427
59	0x402a7973	2.6636627
60	0xc02a21e1	-2.6583178
61	0xc10f5714	-8.958759
62	0x3ee9edb1	0.45689157
63	0xbccc11c6	-0.024910819
64	0xc01832c7	-2.3780992
65	0x419d9a3e	19.700314
66	0x4055f9f9	3.3433821
67	0xc15c247f	-13.75891
68	0xbe757cea	-0.23973432
69	0x3f30a3c6	0.689999
70	0x3f153603	0.5828554
71	0xbf22b1e7	-0.6355271
72	0x3f919d9f	1.1376227
73	0x421273ae	36.61297
74	0x3e921598	0.285321
75	0xbbfc3480	-0.007696688
76	0xbf06a6cc	-0.5259826
77	0xc062c48f	-3.543247
78	0xbee0964d	-0.4386467
79	0xc1b101f9	-22.125963
80	0xbd39ff05	-0.04540922
81	0xc087a42d	-4.238791
82	0x4051cff5	3.2783177
83	0x40ee6024	7.449236
84	0x3cac3ce0	0.021025121
85	0x3f27fc37	0.65619224
86	0x3eeb748e	0.45987362
87	0xbed75184	-0.4205438
88	0x3d1279f0	0.03576082
89	0xbe84763f	-0.25871465
90	0x3f47884f	0.77942365
91	0xbfe8b982	-1.8181612
92	0x3f1d0fb8	0.6135211
93	0xc07deca0	-3.9675674
94	0x3f11aced	0.5690449
95	0xc01c3302	-2.4406133
96	0xbf0b3fbd	-0.5439413
97	0xc05e9975	-3.4781163
98	0x3ee20299	0.44142607
99	0xc02bd75d	-2.6850197
100	0x3f86994f	1.0515536
101	0xc06fd5be	-3.7474208
102	0x3e4967ad	0.19668455
103	0xc02c9e5f	-2.6971662
104	0xbeae9653	-0.34099063
105	0xbe70b757	-0.23507439
106	0x3e95c451	0.2925134
107	0xc0607c53	-3.5075881
108	0x3e6868a6	0.2269617
109	0xc199fbe3	-19.247992
110	0x3da7f660	0.08201289
111	0xbf0ce98f	-0.5504388
112	0xbd8bf4ac	-0.06833777
113	0xbf1c0945	-0.60951644
114	0x3eb00edc	0.34386337
115	0xc043f21b	-3.061652
116	0x3ed64c90	0.41855288
117	0xbfd5a3b7	-1.6690587
118	0x3fb8f221	1.4448892
119	0x41a92cea	21.14693
120	0x3e6218a0	0.22079706
121	0x3e69bd24	0.22826058
122	0xbece296e	-0.40265983
123	0xc06163d8	-3.521719
124	0x3f5306e3	0.82432383
125	0xc053bb11	-3.3082926
126	0xbdddb11c	-0.108247966
127	0x41e50459	28.627123

fc1.bias f4 [64]
0	0x40007599	2.0071776
1	0x3feca708	1.8488474
2	0x3feec67d	1.8654324
3	0xbf1c52eb	-0.6106402
4	0xbf313ef5	-0.6923669
5	0xbe4c0304	-0.19923025
6	0x4004dc23	2.075936
7	0x3fc4ce94	1.5375543
8	0xbf20705d	-0.6267145
9	0xbe4a3874	-0.19748098
10	0x3e822da9	0.2542546
11	0x40067938	2.1011486
12	0xbededca2	-0.43527704
13	0x3fb36b5e	1.4017141
14	0x3fc04ade	1.5022848
15	0xbf2e0251	-0.67972285
16	0x4004af9f	2.073219
17	0xbeec45d9	-0.4614704
18	0x3f498409	0.78717095
19	0xbf00aae5	-0.50260764
20	0x3fc0a538	1.5050421
21	0x3f9efaa4	1.242024
22	0x3fd94c8c	1.6976485
23	0x3ff04cb6	1.877341
24	0xbe7dd324	-0.24787575
25	0xbf277baa	-0.6542307
26	0xbee2e70e	-0.44316906
27	0xbee2b8e6	-0.4428169
28	0x3fd41fb1	1.6572171
29	0xbeb4a68c	-0.35283315
30	0xbfada50d	-1.3565995
31	0xbe9df129	-0.30848053
32	0xc0174b17	-2.3639581
33	0x3f93d9c1	1.1550828
34	0xbebbf74f	-0.3671212
35	0xbf122b82	-0.5709764
36	0xbeff510d	-0.49866524
37	0xbea614cb	-0.3243774
38	0x3fe8d72a	1.8190663
39	0x3ea5b834	0.32367098
40	0x4004d1ce	2.0753055
41	0x401eb992	2.4800763
42	0xbef81b70	-0.48458433
43	0xbf037888	-0.5135579
44	0xbe444484	-0.19166762
45	0x4009ba2a	2.1519876
46	0x3fbf3ea5	1.4940993
47	0x400ac8fa	2.1685166
48	0x4002327d	2.0343316
49	0x400a6f4e	2.1630435
50	0x3fc29ca6	1.5204055
51	0x3fe401b9	1.7813026
52	0xbf0efe8e	-0.5585717
53	0x3fd42138	1.6572638
54	0xbe4d7a7e	-0.20066258
55	0xbecc6855	-0.3992335
56	0xbe338ac1	-0.17533399
57	0x3fb6fb3e	1.4295423
58	0x400a6e13	2.1629684
59	0xbf8fe3b0	-1.124136
60	0xbe8f1ef5	-0.27953306
61	0x3fecc6fe	1.8498228
62	0x3fe8f0a9	1.8198444
63	0xbd96a67a	-0.07355972

fc2.weight f4 [3, 64]
0	0xbfefb16a	-1.8726017
1	0xbfce35f2	-1.6110213
2	0xbfe8a681	-1.8175813
3	0x3c90ed68	0.01769133
4	0xbc870020	-0.016479552
5	0xba53cc00	-0.00080794096
6	0xbfcabbce	-1.5838563
7	0xbfa2b7fd	-1.2712399
8	0xbd5daa80	-0.05411768
9	0x3d8f5a92	0.06999697
10	0x40ec4a13	7.3840423
11	0xbfd88f59	-1.6918746
12	0x3d652248	0.055940896
13	0xbf8c5392	-1.0963004
14	0xbf7cbc74	-0.98725057
15	0x3df838ec	0.12120232
16	0xbfc4efe1	-1.5385705
17	0x3da63100	0.08114815
18	0x40b61b09	5.6908
19	0xbdc51538	-0.09623188
20	0xbfa9a7cb	-1.3254331
21	0xbf67e92b	-0.9059016
22	0xbfc0d555	-1.5065104
23	0xbfd27616	-1.6442287
24	0xbd2a5678	-0.04158637
25	0xbd2f6d78	-0.042829007
26	0x3d85ad10	0.0652715
27	0x3dcfb70e	0.10142337
28	0xbfa1707e	-1.2612455
29	0x3f4d5023	0.80200404
30	0x405835c7	3.3782823
31	0x3da79b81	0.08183957
32	0x41aec238	21.844833
33	0x40b60aea	5.6888323
34	0x3dd9ec4e	0.10640775
35	0x3c872b78	0.01650022
36	0x41642ae3	14.26047
37	0xbd55f4b8	-0.052235335
38	0xbfc69616	-1.5514553
39	0x41199841	9.599671
40	0xbfc2b10a	-1.5210278
41	0x407327cf	3.7993047
42	0xbdbd7fe0	-0.09252906
43	0xbd53b204	-0.05168344
44	0xbdb22a16	-0.086994335
45	0xbfe64b17	-1.7991666
46	0xbfaaafb9	-1.3334876
47	0xbfe4ac7b	-1.7865137
48	0xbfd483cc	-1.6602721
49	0xbfe07b42	-1.7537615
50	0xbfab97dd	-1.340572
51	0xbfbddfee	-1.4833963
52	0xbceec768	-0.029147819
53	0xbfb91e1b	-1.4462312
54	0xbef5b8b0	-0.47992468
55	0x3d2b2014	0.04177864
56	0x3cddfeb7	0.027098997
57	0xbfaa0790	-1.3283558
58	0xbfe41f0a	-1.7821972
59	0xc13a3ebf	-11.640319
60	0x3dfcbe18	0.12340945
61	0xbfbe7f86	-1.4882667
62	0xbfcddd5f	-1.6083182
63	0x40f41b8b	7.628362
64	0xbfd64217	-1.6738919
65	0xbfb54a17	-1.4163235
66	0xbfb4700b	-1.4096693
67	0xbca04b2b	-0.019567093
68	0xbdf8501c	-0.12124655
69	0xbd308bb8	-0.043101996
70	0xbfb13a79	-1.384597
71	0xbfaf46d3	-1.3693489
72	0xbdee3644	-0.11631444
73	0x3d791fa4	0.06082119
74	0x40d98a82	6.7981577
75	0xbfb3b749	-1.4040309
76	0xbde9811e	-0.1140158
77	0xbfb7446a	-1.4317753
78	0xc051fbce	-3.280994
79	0x3d6a8a78	0.05726096
80	0xbfbe513b	-1.486854
81	0x3dace1ec	0.08441529
82	0x40b337a4	5.600542
83	0x3d5855f0	0.05281633
84	0xbfbf7bbf	-1.4959639
85	0xbfb8fbfc	-1.44519
86	0xbfa9cea8	-1.3266191
87	0xbfae50c6	-1.36184
88	0xbc97ca75	-0.018529156
89	0x3d9402f8	0.07227129
90	0xbb8352a0	-0.0040076524
91	0x3d2dd0cf	0.042435464
92	0xbfa7b072	-1.3100722
93	0xbed37574	-0.41300547
94	0x40d3f6a0	6.6238556
95	0x3d24151c	0.040059194
96	0x4190dd2b	18.107992
97	0x4123c973	10.236682
98	0xbc3961d4	-0.011314828
99	0xbdabd836	-0.08390848
100	0x4153cfc8	13.238228
101	0x3d4f094c	0.050545976
102	0xbfc40ce8	-1.5316439
103	0x4104368b	8.263316
104	0xbfbdf14b	-1.4839262
105	0xbf01f035	-0.5075715
106	0x3da22bca	0.07918508
107	0x3d8ed9a6	0.06975107
108	0x3dd1b018	0.10238665
109	0xbf9c47d0	-1.2209415
110	0xbfb9d973	-1.4519485
111	0xbfab9ff6	-1.3408191
112	0xbfcc965f	-1.598339
113	0xbfa1eb18	-1.264987
114	0xbfa840b8	-1.314475
115	0xbfa3742e	-1.276983
116	0xbc9a8aba	-0.018864978
117	0xbfabf17d	-1.3433071
118	0x408ccf73	4.4003234
119	0x3df0622e	0.11737476
120	0xbde414cc	-0.11136779
121	0xbfb466e8	-1.4093904
122	0xbfad37b8	-1.3532629
123	0xc152d347	-13.176581
124	0xbda7eb48	-0.08199173
125	0xbfcaadc3	-1.5834278
126	0xbfbc5a88	-1.4715128
127	0x41486882	12.525515
128	0xbfe377bd	-1.7770916
129	0xbfddad2d	-1.7318474
130	0xbfde3bdd	-1.7362019
131	0x3dcd44f6	0.10022919
132	0xb9e4d400	-0.000436455
133	0xbda7b54c	-0.081888765
134	0xbfab452d	-1.3380486
135	0xbff99521	-1.9498636
136	0x3d2b4084	0.041809574
137	0xbd5fb488	-0.054615527
138	0x40f12bb0	7.536583
139	0xbfac6ae6	-1.3470123
140	0x3df44a8a	0.1192828
141	0xbf9765e2	-1.1827967
142	0xc10cf19b	-8.808986
143	0xbd8ae8ae	-0.067826614
144	0xbf9e1b5b	-1.2352098
145	0xbb960760	-0.004578516
146	0x40ea0cac	7.314047
147	0xbda3b034	-0.079925925
148	0xbf5da8d9	-0.86585766
149	0xbfeddf21	-1.8583719
150	0xbea020e9	-0.31275108
151	0xbf345f22	-0.7045766
152	0xbdbe4330	-0.09290159
153	0x3c6fb710	0.014631048
154	0x3de5fc06	0.1122971
155	0xbd96bb2e	-0.073599204
156	0xbfe8e062	-1.8193476
157	0x3ec17b04	0.37789166
158	0x4131d267	11.113868
159	0x3d0a2839	0.033729766
160	0x4134ccf6	11.300039
161	0x415121aa	13.070719
162	0xbc1ad4bf	-0.009450137
163	0x3dd5013e	0.104006276
164	0x4170c35e	15.047697
165	0x3de82ae2	0.11336304
166	0xbed0b281	-0.40761188
167	0x40b830b1	5.755944
168	0xbf4f5763	-0.80992717
169	0xc088870d	-4.2664857
170	0xbd990720	-0.07472062
171	0xbd1c30c4	-0.038132444
172	0xbc4f2610	-0.012643352
173	0xbfa04014	-1.2519555
174	0xbfa12ba4	-1.2591443
175	0xbf973e64	-1.1815915
176	0xbf013fe3	-0.5048811
177	0xbf8a05eb	-1.0783056
178	0xbfd4b918	-1.6618986
179	0xbf53e42d	-0.82770044
180	0x3c262000	0.010139465
181	0xbf7725a2	-0.965418
182	0x414e194d	12.881177
183	0x3b25b140	0.0025282651
184	0x3db4000d	0.08789072
185	0xbf6c0374	-0.9219277
186	0xbf811ae4	-1.0086331
187	0xc1d79a49	-26.950335
188	0xbd447578	-0.04796359
189	0xbefca4df	-0.49344537
190	0xbfbd1f90	-1.4775257
191	0x4135f2cb	11.371776

fc2.bias f4 [3]
0	0xc00647be	-2.0981288
1	0xbfa8e71c	-1.3195529
2	0xbf619cc1	-0.8812981
