data/comparison_dqn_model_run_3.pth (torch, 3816 bytes, 4 tensors)

fc1.weight f4 [64, 2]
000000 78 99 fc 40 48 2e 5f c1 80 21 90 3c 14 f0 33 be
       7.893734 -13.948799 0.017594099 -0.17572051
000010 df 2e 19 c0 33 8f cf c1 70 29 76 3e 7c fd 73 be
       -2.3934858 -25.944921 0.24039245 -0.23827165
000020 57 03 5e 40 9b 63 b8 41 7e 1d 9b 40 0d 61 27 c1
       3.4689538 23.048635 4.84735 -10.461194
000030 dc 82 ae bf 9f 4b 02 42 76 8f 41 be ce 81 36 be
       -1.3633685 32.57385 -0.18902382 -0.17822954
000040 d4 c1 29 be e1 06 1d 3f 87 bf 4e 40 16 55 82 c0
       -0.16577846 0.6133862 3.23044 -4.0728865
000050 6c 63 1f 3e 9e f5 ae 3e eb 63 86 bf eb 99 91 c1
       0.1556527 0.34171766 -1.0499243 -18.200155
000060 f5 f0 31 3f 1e fe 1f bf dd 80 d4 c0 60 68 8a 41
       0.69508296 -0.6249713 -6.6407304 17.300964
000070 22 15 da 3e 7e 37 f5 be fe 06 9a be 20 e5 04 bd
       0.42594248 -0.478939 -0.3008346 -0.032445073
000080 20 2d b5 bd ec 50 4f 3e 1c e5 fa bf a0 70 16 c1
       -0.088464975 0.20245713 -1.9601169 -9.402496
000090 7b de fd 3d 4c ea 66 3e d6 d0 fc 3d f9 f8 e9 be
       0.123959504 0.22550315 0.1234452 -0.45697764
0000a0 50 3f f9 be fc 97 0d 42 3a 81 08 40 2d eb c1 41
       -0.48681116 35.398422 2.1328874 24.239832
0000b0 d0 f8 a5 bd c0 a6 4f bc d0 c5 d6 3f 2d 5a 56 c1
       -0.08104098 -0.012674034 1.6779118 -13.397016
0000c0 66 80 ff bf 53 cb 9f c1 7e 24 c4 be f2 17 9a 3e
       -1.9961059 -19.97428 -0.3830909 0.30096394
0000d0 f1 f5 1c 3f fd 84 3f 3e 74 49 ed 3f 29 5a 17 c1
       0.61312777 0.18703075 1.8538041 -9.459512
0000e0 00 3f ba 3c 80 52 cf 3c 44 6d a3 bf 69 cc c3 41
       0.022735119 0.025307894 -1.276772 24.47481
0000f0 c9 e4 25 40 40 88 9d c0 22 db 30 c0 c6 58 50 c1
       2.592089 -4.922882 -2.7633748 -13.021673
000100 68 2d 36 3e 62 35 f0 be 4e b7 0e 3f db 5c 7c 3e
       0.17790759 -0.46915728 0.5574845 0.24644797
000110 3e e3 df 3e 63 23 0e 3f 92 74 46 bf ea ec 23 42
       0.4372806 0.55522746 -0.7752162 40.98136
000120 22 2a ad 3e 1b 1c 85 be b6 c1 8e 3d 59 b3 c4 be
       0.33821207 -0.25998005 0.06970541 -0.3841808
000130 00 c5 0c 3b 41 87 1c 3f e0 07 93 bd ae f1 c8 3e
       0.0021479726 0.6114388 -0.071792364 0.39246887
000140 4d 0e bb be 49 52 8d 3e c7 54 0b 3f 40 48 b8 3c
       -0.36534348 0.2760184 0.54426235 0.022495389
000150 3c 73 8b 3e e0 9c ba bc 81 c4 84 c0 c6 07 81 41
       0.27236354 -0.022779882 -4.1489873 16.128796
000160 a9 3c 50 40 c0 70 81 c0 68 66 eb bf 92 2b c0 c0
       3.2537024 -4.0450134 -1.8390627 -6.0053186
000170 91 d5 74 bf 47 36 d9 41 7d c4 65 40 13 60 1c 41
       -0.95638376 27.151503 3.5901177 9.773456
000180 bc da f1 bf 5f 61 ba c0 bb a6 b8 c0 e7 7f 01 c1
       -1.8894877 -5.824386 -5.770353 -8.093726
000190 1b 80 51 c0 ee 0c ad c1 59 4e 52 3f 97 72 27 c1
       -3.273444 -21.631313 0.821508 -10.465476
0001a0 59 9e ea bf f8 06 b5 3f cf 22 85 40 a6 93 b3 40
       -1.8329574 1.4142752 4.160499 5.6117735
0001b0 45 ff 17 bf 34 d2 c7 c1 b8 db f9 3d 47 40 00 c1
       -0.59373885 -24.977638 0.12200111 -8.015693
0001c0 84 14 3a 40 c1 61 80 c0 a6 d5 8f 3d 41 a8 23 c0
       2.9075022 -4.011933 0.07023172 -2.5571444
0001d0 e4 bc 15 c0 c7 c5 9f c1 8c 8e 1d be 00 75 c4 bd
       -2.339654 -19.971571 -0.15386409 -0.095926285
0001e0 6c 46 12 c0 6c f6 a0 c1 1c 88 8b 3e f4 a4 af be
       -2.2855482 -20.120323 0.2725228 -0.34305537
0001f0 41 e2 92 40 85 22 e5 3f 57 aa 6d 3f 9b d4 81 c1
       4.590119 1.790116 0.9283804 -16.228811

fc1.bias f4 [64]
000000 61 b3 fc be e4 49 ab be ea 2c f1 3f 31 69 17 bf
       -0.49355605 -0.33454812 1.8841832 -0.59144884
000010 67 1f 84 40 cd 16 db 3f b5 f2 2a bf c8 61 9b be
       4.1288333 1.7116333 -0.6677659 -0.3034804
000020 fe ca 73 be d5 fe 6b 40 f8 9a 18 be 69 8c 35 3f
       -0.23807904 3.6874287 -0.14902866 0.70917374
000030 20 a3 31 bf 5b 7a 1e c0 83 fb 82 be 12 3a 2d bf
       -0.69389534 -2.476218 -0.25582513 -0.67666733
000040 32 4c 22 bf 4e 69 be 3f d2 ab 25 be 45 a5 09 be
       -0.63397515 1.4875886 -0.16178825 -0.13441952
000050 8f 2e 3d bc c2 f8 df 3f 09 2f 03 bf 5c 9d 66 40
       -0.011546745 1.749779 -0.51243645 3.6033545
000060 6f 0f 63 bf 0c 6e 20 bf 0c 7c ad be d5 cd 62 40
       -0.88695425 -0.6266792 -0.33883703 3.543813
000070 a1 ea 01 bf 38 28 4d bf 43 f3 42 40 fa 90 f0 3f
       -0.5074864 -0.80139494 3.0460975 1.8794243
000080 8b 45 1c bf 2d 54 c9 be 2f 66 15 bf f9 5e c4 3f
       -0.61043614 -0.39322034 -0.58359045 1.5341483
000090 c9 7b c4 be 68 ca 8a bd e3 24 d1 be 25 a5 13 bf
       -0.3837569 -0.06776887 -0.40848455 -0.57673866
0000a0 d8 d5 00 bf ae 33 14 bf cc 5f 0b bf 4e 39 14 c0
       -0.503263 -0.57891357 -0.5444305 -2.3159976
0000b0 0c 2a 9f 40 1a e2 db 3f 5f 4b 98 bf e1 28 7e 40
       4.9738827 1.7178376 -1.1898001 3.971245
0000c0 9a be e0 3f b7 67 80 3f 7e 6b 12 c0 97 af 8f 3f
       1.7558167 1.0031651 -2.2878108 1.1225461
0000d0 5d 55 4d 40 1a a1 84 40 ea 12 e7 3e 3b bf 80 3e
       3.2083352 4.1446657 0.45131618 0.25145897
0000e0 c7 93 57 40 47 aa 33 be d3 20 e6 3f 86 a4 07 bf
       3.3683946 -0.17545424 1.7978767 -0.5298542
0000f0 2f 1e d0 3f 35 3d b7 be dc cb 27 40 7d ed 3b 40
       1.6259211 -0.35788885 2.6218176 2.9363701

fc2.weight f4 [3, 64]
000000 70 6a 17 c1 84 f9 3d 3d 70 bc 8c bf e0 9c b8 bd
       -9.463486 0.046380535 -1.0995007 -0.090142965
000010 45 aa a8 c0 c1 a6 3d 41 55 65 ea 3f 08 cd 73 bd
       -5.270785 11.853211 1.8312174 -0.059521705
000020 a0 f6 6e bc 32 d2 d8 bf bc ad 61 bd ae 1a 6b c1
       -0.014585167 -1.6939147 -0.055097327 -14.694014
000030 62 3a ce 3d 6d 90 41 c1 68 10 b7 3c d4 c1 e0 3d
       0.100697294 -12.09776 0.02234669 0.1097447
000040 c0 0b 57 bd 15 62 74 bf 09 9d 39 3e 10 8d bc 3c
       -0.05250144 -0.9546216 0.1812631 0.023016483
000050 7d a8 80 40 5f 67 e2 40 88 e0 77 3d f3 76 71 bf
       4.0205674 7.0751185 0.060516864 -0.9432213
000060 03 09 0c 41 b0 e3 c8 3c f9 4a 54 bc ca b5 f7 bf
       8.7522 0.024522632 -0.012957328 -1.9352353
000070 2a 60 aa 3d 5e 9d a0 41 cf 07 c9 bf a7 6f 56 bf
       0.08319123 20.07684 -1.5705508 -0.8376412
000080 fe 73 ea 3d 28 e6 2d bd 80 a2 ef bb b7 82 09 c1
       0.11447905 -0.042455822 -0.0073130727 -8.594413
000090 b0 37 51 3c 2f 04 1d bd c0 da 08 3b c0 56 8a bc
       0.012769625 -0.038334068 0.0020882338 -0.016887069
0000a0 df 14 66 3e 9c 54 37 3d a8 d2 b6 bd 63 d1 15 41
       0.22468899 0.044758424 -0.08926898 9.36362
0000b0 0f d0 81 be 96 8b 88 bf 5d f9 8e 41 d1 e6 9c 3f
       -0.2535405 -1.0667598 17.87176 1.225794
0000c0 8c 6b 5d bf e5 d2 fd 40 2e 61 a0 c0 c0 84 09 c0
       -0.8649223 7.931994 -5.0118628 -2.1487274
0000d0 7b c4 1c bf e7 53 3d c0 3a ef 94 41 60 c2 0d c1
       -0.61237305 -2.958246 18.61681 -8.859955
0000e0 08 dd 27 c0 21 da 47 3e 01 cc 2d bf d8 e2 c0 3d
       -2.6228657 0.19516803 -0.6788941 0.09418267
0000f0 f4 77 0a bf a8 66 ab bd 60 4a 25 41 2e 0b ec bf
       -0.54089284 -0.083691895 10.330658 -1.8440912
000100 86 ab 15 c1 d0 c4 da 3d 46 9d 11 c1 aa 9c 98 bd
       -9.354376 0.1068207 -9.100897 -0.07451756
000110 84 9b dd c0 f0 b2 84 41 1b 31 c9 3f f4 9c 8c 3d
       -6.925234 16.587372 1.5718111 0.06865874
000120 5e 8a fe bd d3 2c a0 bf ae 6e dd 3d 5c 75 57 41
       -0.12428735 -1.2513679 0.10812126 13.466152
000130 32 d2 a3 bd 86 00 73 c1 50 2d 73 bd d4 31 20 bd
       -0.07999076 -15.187628 -0.059369385 -0.03911002
000140 ac 96 ba 3d 2a d5 d5 3f 5c f3 37 3e 04 ed 8f 3c
       0.0911077 1.6705678 0.17963928 0.017569073
000150 87 e7 8a 41 4e ef f8 40 fe e2 dd 3d 23 96 71 bf
       17.36305 7.779212 0.10834311 -0.94369715
000160 7d de 77 40 a8 08 95 3d 00 58 4d bb 6c 91 0b c0
       3.8729546 0.07277042 -0.003133297 -2.1807508
000170 ca 03 8e 3d 99 2b e3 3f 08 68 93 bf 0a 08 5a c0
       0.069343165 1.774768 -1.1516123 -3.4067407
000180 92 da c8 3d 94 97 f6 bd ec 55 40 3d 07 63 fd c0
       0.09807314 -0.1204063 0.04695694 -7.9183383
000190 ee 39 92 bd b6 b7 ea bd 3c 44 a4 bd 08 d0 55 3d
       -0.071399555 -0.11460821 -0.08020827 0.052200347
0001a0 a2 af 02 3d d4 2d 47 3d e8 95 94 bc b7 e2 43 41
       0.031905778 0.04862769 -0.018137887 12.24285
0001b0 0b a3 0e c0 c3 2d 06 3f 77 78 ba 41 92 9b 3d bf
       -2.2287014 0.52413577 23.30882 -0.74065506
0001c0 17 11 f5 3e 93 66 5f 41 1b cd df c0 45 f1 7d 3f
       0.478646 13.962543 -6.9937873 0.99196273
0001d0 3f ac b6 be e6 ba 5a c0 5f ca 74 41 76 36 3e c1
       -0.35678288 -3.4176574 15.299407 -11.888296
0001e0 e4 01 34 c0 a7 cf 1d 3e a2 a3 cd c0 b8 ce 9b bc
       -2.8126154 0.15411244 -6.4262247 -0.01901947
0001f0 b4 39 c2 c0 14 07 f0 3d ab eb 43 41 ec 55 16 bf
       -6.069544 0.117201 12.245036 -0.58724856
000200 21 08 32 c1 40 e4 9b bd 74 73 12 c0 14 34 7a bd
       -11.126985 -0.076118946 -2.2882967 -0.06108482
000210 68 37 dc c0 53 2b 0e 41 e0 02 10 41 55 f1 ed 3b
       -6.8817635 8.885577 9.000702 0.007261435
000220 b0 f6 87 bc 21 fd e9 40 1c 24 93 bd d3 5b ab 40
       -0.016597122 7.3121495 -0.07184622 5.354959
000230 fc e8 27 3d 74 7d 9d c0 c0 e6 5b bc 00 16 42 bb
       0.040993676 -4.921564 -0.013421714 -0.0029615164
000240 0a ea ee bd 8c 6a ed bf dc b9 ed 3c cc ab 54 bd
       -0.11665733 -1.854814 0.029019289 -0.05192165
000250 e3 2d 1a 41 40 6c 13 41 62 9a 8f 3d a6 d4 99 c0
       9.636203 9.213928 0.07011868 -4.807208
000260 1d 75 08 41 1e 0a 83 bd be c1 b8 3d 49 c9 90 c0
       8.528592 -0.06398414 0.090213284 -4.524571
000270 f2 e4 fa 3d 5b a2 e6 40 b7 c3 9d 40 46 c3 3e c0
       0.12250699 7.207319 4.930141 -2.9806685
000280 a0 fe 77 bd 0c a2 a4 3c 90 0a 9e bc b0 96 bb c0
       -0.060545564 0.020096801 -0.019292146 -5.8621445
000290 a0 44 a5 bb 87 23 54 3d 0c 75 05 bd 74 b1 b0 bd
       -0.005043581 0.051791694 -0.032582328 -0.086275965
0002a0 1c f6 e9 bc 2a c5 e5 3d 0e d9 93 bd 24 49 0f 41
       -0.028559737 0.11219247 -0.07219134 8.955357
0002b0 8d fc be c0 91 10 14 c0 0f 2c 37 41 a6 9f b1 40
       -5.968329 -2.3135111 11.4482565 5.5507383
0002c0 9f 64 12 c0 b6 9b 15 41 63 70 8f c0 75 9c a4 3f
       -2.2873914 9.350515 -4.482469 1.2860247
0002d0 14 38 69 c0 be 1f e1 c0 88 da 42 41 28 85 28 41
       -3.6440477 -7.035125 12.178352 10.532509
0002e0 77 99 8a 40 9f df 21 3d 95 fc 20 c0 88 4a 70 bd
       4.3312335 0.039519902 -2.5154164 -0.05866483
0002f0 ea c2 30 c0 14 9d 6d bd 40 8f ea 40 6d 87 7d c0
       -2.7618966 -0.05801113 7.3299866 -3.9613907

fc2.bias f4 [3]
000000 8c 0f 0d bf 9f c2 10 3f 75 1c 54 c0
       -0.5510185 0.5654697 -3.3142369
