data/comparison_dqn_model_run_3.pth (torch, 3816 bytes, 4 tensors)

fc1.weight f4 [64, 2]
00000000: c91e 113f 9545 1ebf 8021 903c 14f0 33be
00000010: 5ca7 d03e ae22 7a3f 7029 763e 7cfd 73be
00000020: dd95 77bf bdf3 653f d358 babf c49e a3c1
00000030: 33b3 5a40 86cd c841 ccbe 4fbe dd12 22be
00000040: d4c1 29be e106 1d3f 10bc 123f 6ff6 d6be
00000050: 6c63 1f3e 9ef5 ae3e 0765 a3bf cb66 44c1
00000060: f5f0 313f 1efe 1fbf f9d1 2f3f 88cc 7cbe
00000070: 2215 da3e 7e37 f5be fe06 9abe 20e5 04bd
00000080: 202d b5bd ec50 4f3e d31e 1fbf 82fa f6be
00000090: 8e1c 373e 8856 873e 436b 093d 2ec6 ce41
000000a0: a25a 133f f302 1742 4dae 8a3f c957 c4c1
000000b0: d0f8 a5bd c0a6 4fbc 6f46 4cbf 898b 043f
000000c0: d125 623d a94e 3ebf 7e24 c4be f217 9a3e
000000d0: e4fb 1a3f d16b 173e 0b15 aa3e 5268 9e3f
000000e0: 003f ba3c 8052 cf3c 675b 313f 0687 183e
000000f0: 008a aebe 5660 8a3f cf13 03be fd0c 41be
00000100: 682d 363e 6235 f0be 8f64 c83f 9b98 8741
00000110: 3ee3 df3e 6323 0e3f 6097 a53f c01a abbf
00000120: 222a ad3e 1b1c 85be 2ec5 46c0 1090 afc0
00000130: 00c5 0c3b 4187 1c3f e007 93bd aef1 c83e
00000140: 55a3 c1be 873b b33e c754 0b3f 4048 b83c
00000150: 3c73 8b3e e09c babc 2e2f 883e d190 3fc0
00000160: 6f3a 9dbf d6e3 6b3e 4e70 d73e b777 c53e
00000170: c96d 02c0 1779 9441 15e1 78bf c3fa 293e
00000180: 06c8 473e 8f04 1ebf 5ef2 aabf 1e5d b2c1
00000190: 1915 513f d9ce de3e dbc7 333f 1b52 333d
000001a0: a02f 3c3f cfd9 bbbe dfb2 a8be c274 363e
000001b0: cf9c b23f 930f 3cbf 1f51 923c 647d 89bf
000001c0: cb48 efbe 7bdb 673f c35f eb3d 4722 8cbf
000001d0: 7db3 dabc 2c7d 613f 8c8e 1dbe 0075 c4bd
000001e0: ae40 7abb 3906 94bd 1c88 8b3e f4a4 afbe
000001f0: 4e83 bb40 e88f 1342 02cc bdbf 14ae 743f
0.566876 -0.61824924 0.017594099 -0.17572051 0.40752685 0.97709167 0.24039245 -0.23827165
-0.9671305 0.8982504 -1.4558357 -20.452522 3.4171875 25.100353 -0.20287627 -0.15827508
-0.16577846 0.6133862 0.5731821 -0.4198489 0.1556527 0.34171766 -1.2765206 -12.275096
0.69508296 -0.6249713 0.6867977 -0.24687397 0.42594248 -0.478939 -0.3008346 -0.032445073
-0.088464975 0.20245713 -0.6215641 -0.48237997 0.17881986 0.26433206 0.03354956 25.846767
0.5756017 37.75288 1.0834442 -24.542864 -0.08104098 -0.012674034 -0.79794973 0.51775414
0.055211846 -0.74338776 -0.3830909 0.30096394 0.60540605 0.14787222 0.3321918 1.2375586
0.022735119 0.025307894 0.69280094 0.14895257 -0.3408966 1.0810649 -0.12800525 -0.18852611
0.17790759 -0.46915728 1.5655688 16.949514 0.4372806 0.55522746 1.2936821 -1.3367538
0.33821207 -0.25998005 -3.105785 -5.4863358 0.0021479726 0.6114388 -0.071792364 0.39246887
-0.37819925 0.35006353 0.54426235 0.022495389 0.27236354 -0.022779882 0.26598495 -2.993214
-1.2283458 0.23036131 0.4207787 0.38567898 -2.0379508 18.559126 -0.9721845 0.16599564
0.19509897 -0.61725706 -1.3355215 -22.295467 0.8167282 0.43517187 0.7022683 0.043779474
0.7351017 -0.36689612 -0.32948968 0.17817977 1.3954104 -0.73461264 0.017860947 -1.0741391
-0.46735224 0.90569276 0.114928745 -1.0947961 -0.026696915 0.8808162 -0.15386409 -0.095926285
-0.0038185525 -0.072277494 0.2725228 -0.34305537 5.8597784 36.890533 -1.4827883 0.9557812

fc1.bias f4 [64]
00000000: 42a2 e43f e449 abbe 695b f13f 3169 17bf
00000010: ac69 c93f d287 823f b9ea ec3e 76d5 92be
00000020: feca 73be c670 0040 f89a 18be 93a4 503f
00000030: 20a3 31bf 3894 1a40 83fb 82be 123a 2dbf
00000040: 324c 22bf f7c2 0940 1ebc 28be 7c16 8b3d
00000050: 517f 9abe b35a 303f 092f 03bf 770d e83f
00000060: 24f8 993f 0c6e 20bf 0c9c b1be 06a8 583f
00000070: a1ea 01bf 2ce5 0d40 973f e53f aa3f 0940
00000080: 8b45 1cbf 9ec4 59bf 2f66 15bf 7cb1 0240
00000090: c97b c4be 6d55 ebbf e324 d1be 25a5 13bf
000000a0: 64b6 fabe ae33 14bf cc5f 0bbf a778 1fbe
000000b0: c745 e83f 7cea f53f 2339 aabf 81b6 fb3f
000000c0: e4ef f43f 2c6d 983e 1423 1340 538d 0140
000000d0: 8d69 0e40 bbac ce3f eda3 0740 94f0 943f
000000e0: b9f4 ca3f 296a a2bd ab3d 1340 86a4 07bf
000000f0: 403b 0340 353d b7be 7c8b 14bf d391 cc3f
1.7862017 -0.33454812 1.8856021 -0.59144884 1.5735373 1.0197699 0.4627283 -0.28678483
-0.23807904 2.0068831 -0.14902866 0.8150112 -0.69389534 2.4152966 -0.25582513 -0.67666733
-0.63397515 2.1525247 -0.16478011 0.06791398 -0.3017526 0.68888396 -0.51243645 1.8129109
1.2028852 -0.6266792 -0.34689367 0.84631383 -0.5074864 2.2171125 1.7910031 2.1445107
-0.61043614 -0.8506564 -0.58359045 2.0420828 -0.3837569 -1.8385445 -0.40848455 -0.57673866
-0.48967278 -0.57891357 -0.5444305 -0.15573369 1.8146294 1.9212184 -1.3298687 1.9665071
1.9135709 0.29770792 2.299016 2.0242507 2.2251923 1.6146463 2.1193802 1.1635919
1.5855933 -0.07930405 2.300639 -0.5298542 2.0504913 -0.35788885 -0.58025336 1.5982002

fc2.weight f4 [3, 64]
00000000: 35e7 6fbf 84f9 3d3d aba9 85bf e09c b8bd
00000010: 1e3b d1bf 9597 c1be bc02 08be 08cd 73bd
00000020: a0f6 6ebc f5a2 96bf bcad 61bd cf4e cebf
00000030: 623a ce3d dd53 87bf 6810 b73c d4c1 e03d
00000040: c00b 57bd 67bf c3bf 2040 8b3e ee16 b840
00000050: c687 6b41 b7f3 1741 88e0 773d b215 d1bf
00000060: 2f58 72bf b0e3 c83c e40c 3d3d 1f53 e7be
00000070: 2a60 aa3d f2a7 96bf 9749 b7bf 7a84 b8bf
00000080: fe73 ea3d 3cf1 01bf 80a2 efbb c391 1dbf
00000090: b037 513c 732d f540 c0da 083b c056 8abc
000000a0: 275c dfbd 9c54 373d a8d2 b6bd 3d2b e3bf
000000b0: eac4 debf 15e5 88bf c5eb 8541 8a2d dbbf
000000c0: f7c4 91bf ecee e940 c2ad 97bf 27d7 9abf
000000d0: f02f 83bf 96ed a8bf b5eb 20bf c390 75bf
000000e0: 6b68 bdbf a4ed 2b3d b1d1 bdbf d8e2 c03d
000000f0: bc76 a1bf a866 abbd 9720 df40 1fe2 eabf
00000100: 5c99 b7bf d0c4 da3d a366 8fbf aa9c 98bd
00000110: fb03 08bf ac01 efc0 2a5d 0d40 0082 b23b
00000120: 5e8a febd 38a4 d1bf ae6e dd3d 1890 57c0
00000130: 32d2 a3bd ed6e bfbf 502d 73bd d431 20bd
00000140: ac96 ba3d 947c 7abf 066a d33e 3ef7 0141
00000150: 57d3 3541 9688 3d41 fee2 dd3d 3fd0 4abf
00000160: bc7b 62bf a808 953d 0058 4dbb 405e 28bf
00000170: ca03 8e3d 0c7a cebf 8d9e 64bf 679f 9cbf
00000180: 92da c83d a739 fd3e ec55 403d dbbd f2bf
00000190: ee39 92bd 4ab0 0f41 3c44 a4bd 08d0 553d
000001a0: 958f 26be d42d 473d e895 94bc 06dc ef3e
000001b0: b3b4 12bf fea9 97bf 5890 4f41 7c6f 51bf
000001c0: 6ed7 94bf e320 3941 0e20 d0bf edee cebf
000001d0: c422 bfbf 39d5 45bf c144 f8bf 379f 52bf
000001e0: cf27 51bf 1251 303a 57e3 9dbf b8ce 9bbc
000001f0: c559 9bbf 1407 f03d c3d3 fe40 cee6 b1be
00000200: 8e18 c9bf 40e4 9bbd 6606 c2bf 1434 7abd
00000210: 741f 41bf b3af 0bc0 c098 0041 002c 0339
00000220: b0f6 87bc 39e6 dcbf 1c24 93bd e888 163e
00000230: fce8 273d 2ba4 e8bf c0e6 5bbc 0016 42bb
00000240: 0aea eebd cc30 84bf 27fa 9bbd 2d9c 2c41
00000250: af05 5f41 5d47 2b41 629a 8f3d 8756 6abf
00000260: 9861 68bf 1e0a 83bd c207 aebc 986f 6ebf
00000270: f2e4 fa3d f88f e2bf 7e93 8ebf 4ba4 a5bf
00000280: a0fe 77bd 7995 73c1 900a 9ebc 0c68 15c0
00000290: a044 a5bb 9b07 f140 0c75 05bd 74b1 b0bd
000002a0: ed37 babd 2ac5 e53d 0ed9 93bd 06fa 32c0
000002b0: 16e7 30bf 03a7 cdbf 7ec7 4341 2562 57bf
000002c0: fe6c b7bf 525f c540 f144 02c0 f310 0dc0
000002d0: bc56 ebbf 6e37 84bf 4b36 16c0 78ad 69bf
000002e0: 31d9 69bf fd06 203d dae1 adbf 884a 70bd
000002f0: 887f 9cbf 149d 6dbd 888c d840 5d61 0ebf
-0.9371217 0.046380535 -1.0442404 -0.090142965 -1.6346166 -0.3781096 -0.13282293 -0.059521705
-0.014585167 -1.176848 -0.055097327 -1.61178 0.100697294 -1.0572468 0.02234669 0.1097447
-0.05250144 -1.5292786 0.2719736 5.752799 14.720648 9.497001 0.060516864 -1.6334746
-0.9466581 0.024522632 0.04615487 -0.45180604 0.08319123 -1.1770003 -1.4319333 -1.4415429
0.11447905 -0.5075872 -0.0073130727 -0.6155054 0.012769625 7.661798 0.0020882338 -0.016887069
-0.109062485 0.044758424 -0.08926898 -1.774757 -1.7403843 -1.069491 16.740122 -1.7123272
-1.1388234 7.3104153 -1.1849902 -1.2096909 -1.0249004 -1.3197505 -0.6285966 -0.95924014
-1.4797491 0.04197468 -1.4829618 0.09418267 -1.261436 -0.083691895 6.9727283 -1.8350257
-1.4343677 0.1068207 -1.1203197 -0.07451756 -0.53131074 -7.468954 2.2088113 0.005447626
-0.12428735 -1.637824 0.10812126 -3.3681698 -0.07999076 -1.4955727 -0.059369385 -0.03911002
0.0911077 -0.9784634 0.41291827 8.122862 11.364097 11.845846 0.10834311 -0.7922401
-0.88470054 0.07277042 -0.003133297 -0.65768814 0.069343165 -1.6130996 -0.8930443 -1.2236146
0.09807314 0.49458048 0.04695694 -1.8964189 -0.071399555 8.980539 -0.08020827 0.052200347
-0.1626571 0.04862769 -0.018137887 0.46847552 -0.57306975 -1.1848752 12.97274 -0.81810737
-1.1628244 11.570529 -1.6259782 -1.6166664 -1.4932485 -0.77278477 -1.9395982 -0.8227419
-0.8170137 0.00067259476 -1.2335004 -0.01901947 -1.213677 0.117201 7.96335 -0.34746403
-1.5710618 -0.076118946 -1.5158203 -0.06108482 -0.7543862 -2.1825988 8.0372925 0.00012509525
-0.016597122 -1.7257758 -0.07184622 0.14700663 0.040993676 -1.81751 -0.013421714 -0.0029615164
-0.11665733 -1.0327392 -0.07616072 10.788129 13.938888 10.704923 0.07011868 -0.9153828
-0.90773916 -0.06398414 -0.021243934 -0.9313903 0.12250699 -1.7700186 -1.1138761 -1.2940763
-0.060545564 -15.223992 -0.019292146 -2.3344755 -0.005043581 7.5321784 -0.032582328 -0.086275965
-0.09092698 0.11219247 -0.07219134 -2.7965102 -0.6910261 -1.6066593 12.236204 -0.8413413
-1.4330137 6.167886 -2.0354578 -2.2041595 -1.8385844 -1.0329416 -2.3470638 -0.9128032
-0.9134703 0.039069165 -1.358455 -0.05866483 -1.222642 -0.05801113 6.7671547 -0.55617315

fc2.bias f4 [3]
00000000: 1961 d4bf 3374 bcbf b6a3 dabf
-1.6592132 -1.4722961 -1.7081211
