data/comparison_dqn_model_run_0.pth (torch, 3816 bytes, 4 tensors)

fc1.weight f4 [64, 2]
00000000: 8b85 0340 6a50 32c0 ce1d d4bd 2771 273f
00000010: 9671 ae3f 7291 96c0 8573 bb3f cc2f d9bf
00000020: 8993 1f3f 06cd 04bf 546d 0340 4dd3 42c0
00000030: 7b0a ed3e f910 4c3c 1a92 ae3e 6877 ccbd
00000040: 958b 0b3f d80c d63d 9c03 a9be ec90 383e
00000050: 9172 c63f c7ff 3542 3306 a6be 2e07 04be
00000060: efb1 f8be 7f9b b8c0 0c76 4cbe 13af d9be
00000070: 7be9 cb3f 30b3 82c0 ef7a 233f 2ac5 19bf
00000080: 9301 d73e 9ed9 293c c879 633d 6fec 0c3f
00000090: f3ac 0540 8c9b cd40 a5ad ba3f 2859 bbc0
000000a0: effc a63f d94c c3c0 e25d 983e 399e 213f
000000b0: 5f04 ed3f f80c 29c0 fefd d03e 708e 013e
000000c0: e0c3 6d3e e4d1 0dbf 1b66 0bbf 9d96 5dbe
000000d0: f61b c03e 1fcf b4c0 948e 503e 18f6 953e
000000e0: 902e c23f 5ef6 86c0 ffa5 0840 47ea 28c0
000000f0: 28c9 9e3f 1071 d4c0 4c45 5f3e 025c 79be
00000100: 2c5b d83f da7d 59c0 0f74 e73e 25f5 e441
00000110: 7e18 493f 5334 9ec0 09d1 223f b04c 713e
00000120: 5221 0040 2155 64c0 a4d7 12c0 66a0 adc1
00000130: 6e80 b8be 331e be3e 122f fa3f f601 3cc0
00000140: 7258 743f ce29 c9c0 fe16 c03e 7056 92be
00000150: daba db3e f4d2 2bbe 1380 8e3e 0868 14bf
00000160: 4066 333f 0720 aec0 5013 193e 209c 38be
00000170: dacc d73e 021e f63e 75e6 2240 f35e d1c1
00000180: a5c0 253f c653 74be c968 b43f e451 30c0
00000190: fe8d 683e 0bed cbc0 8025 bfbd 3f66 03bf
000001a0: 979e bc3f 1472 57c0 ec9e 73bf 2a6a c4c0
000001b0: 2d0b b8bf 26fb a5c0 491f 203f 69ad 7f3d
000001c0: 71de c93f f686 a3c0 26b3 db3f 069f 05c0
000001d0: db77 4340 95c5 8b40 61ef 0140 3ecc 3041
000001e0: 006c 003b 3bb7 86be 93a6 bc3f aea4 fdbf
000001f0: dc9b 9740 5e85 0240 3d97 01bf 0c4c 43c1
2.0550258 -2.786158 -0.10357247 0.6540703 1.3628414 -4.7052546 1.4644629 -1.6967711
0.62334496 -0.5187534 2.0535479 -3.0441468 0.46297058 0.0124552185 0.34095842 -0.099837124
0.5450986 0.104516685 -0.33010566 0.18024033 1.5503713 45.499783 -0.32426605 -0.12893364
-0.48573253 -5.7689815 -0.19966906 -0.42516384 1.5930628 -4.0843735 0.63859457 -0.60066473
0.4199339 0.010366825 0.05553606 0.5504827 2.088681 6.4252377 1.4584242 -5.8546333
1.3045939 -6.103131 0.29759127 0.63132054 1.8516959 -2.6414165 0.4081878 0.12651992
0.23219252 -0.5539839 -0.54452676 -0.21639486 0.37521333 -5.6502833 0.20366889 0.29289317
1.517046 -4.217574 2.1351316 -2.6392992 1.2405138 -6.6388016 0.21803778 -0.24351504
1.6902823 -3.3983064 0.45205733 28.6197 0.78553 -4.943887 0.6360021 0.2356441
2.0020337 -3.5676959 -2.2944117 -21.70332 -0.36035484 0.37132415 1.9545615 -2.9376197
0.95447457 -6.286353 0.37517542 -0.28581572 0.42915994 -0.16779691 0.27832088 -0.5797124
0.70077896 -5.4414096 0.14948773 -0.18028307 0.42148477 0.4806977 2.545316 -26.171362
0.6474708 -0.23860082 1.4094478 -2.7549982 0.22710416 -6.372686 -0.093333244 -0.5132789
1.4735898 -3.3663378 -0.9516437 -6.1379595 -1.437841 -5.186908 0.6254774 0.062421236
1.5771009 -5.1102247 1.7164047 -2.087831 3.0541904 4.367869 2.0302355 11.049864
0.0019595623 -0.2631167 1.4738334 -1.9815881 4.737776 2.03939 -0.50621396 -12.206066

fc1.bias f4 [64]
00000000: 69a0 1440 4d73 4fbe 1454 cc3f b227 d53f
00000010: 6049 19bf 97b2 1340 a42f 78be 63c7 8abe
00000020: 4142 16bf 59f6 33bf 20f3 03bf d4ce d7be
00000030: e7d0 d13f 538e 14bf 5d96 ea3f bfe0 04bf
00000040: eecb 7ebe 826f 8ebd a02c fe3f bd00 e13f
00000050: 6171 f63f c488 0fbf ba8d 0540 e4b8 9bbe
00000060: 3b69 51be 7812 2fbf fc4d ca3f f6db 04bf
00000070: 7135 e03f 4386 1b40 1d9c c33f 1ebc c3be
00000080: 0f6c f53f be77 2cbe 2a08 8f3f 2f86 1fbf
00000090: b301 1140 d9e2 ca3f b8c8 e0be 25c7 0c40
000000a0: ffe6 983f b54e c8be eb3d b7be bf9c 24be
000000b0: 98f9 b73f b806 39be f791 cebe a44f e23f
000000c0: 283c 07bf 1027 cd3f 3542 db3f 3d6b 2abf
000000d0: ecf1 d73f 5ae1 e83f e2c1 c73f 8e7d acbe
000000e0: c429 ec3f 2a4c fa3f 6b7a 4140 617e e63f
000000f0: 90bc 3fbe 3342 d53f fc15 1640 ba52 17bf
2.3222907 -0.20258828 1.5963159 1.6652739 -0.59877586 2.3077753 -0.24236923 -0.27105245
-0.58694845 -0.7029777 -0.51542854 -0.42149985 1.6391877 -0.5802967 1.8327137 -0.51905435
-0.2488248 -0.06954862 1.9857368 1.757835 1.925335 -0.5606806 2.0867753 -0.30414498
-0.20450298 -0.68387556 1.5805049 -0.51898134 1.7516309 2.4300697 1.5282017 -0.3822946
1.9173602 -0.16842553 1.1174366 -0.6231412 2.2657287 1.5850478 -0.43903136 2.1996548
1.1945494 -0.3912255 -0.35789427 -0.16075419 1.4373045 -0.18068969 -0.40345737 1.7680554
-0.52826166 1.6027546 1.712958 -0.6656988 1.6870704 1.8193772 1.5606043 -0.3368954
1.8450246 1.9554493 3.0230968 1.8007318 -0.18724275 1.6660827 2.3450918 -0.59110606

fc2.weight f4 [3, 64]
00000000: 1cd2 adbf d8ec 923d 4d73 cdbf 0e46 6fbf
00000010: 8014 ef3a 1d91 c5bf ecab 69bd c87a 0f3d
00000020: 8483 e8bd 84f2 3cbd 0e95 a941 4011 0c3f
00000030: 0efb f7bf 0858 9abd 3010 c8bf fa50 e5bd
00000040: 8ce4 26bd c0dc 333d 3333 96bf 94d9 d6bf
00000050: df14 f7bf e4f2 99bd daa6 b2bf 38a4 f73d
00000060: 1821 943c 0272 97be 88ff dfbf e802 43bd
00000070: 4110 ddbf b5cf 52bf 577e bebf 2847 cdbc
00000080: 9358 d8bf d3de b140 0f9d bfbf f498 3a3d
00000090: 5074 d5bf eb9e e7bf f6ea cfbd a244 a1bf
000000a0: 53c8 c2bf d66c d73d 561c 863d 6b13 103d
000000b0: a284 dabf 86b0 c2bd 6c55 dbbd 8c73 6041
000000c0: e497 513d 7653 a0bf 8ce7 efbf 5054 93bd
000000d0: f2ed b2bf 6e2f 05c0 fdae 01c0 724f 58bc
000000e0: dc84 c4bf cff7 1dbf e86c 27c0 e084 8dc0
000000f0: 68ac b4bc f26e a3bf fe09 c740 e989 2241
00000100: c04c 97bf 763a b2bd a4a4 c8bf c1cf c1bf
00000110: 10e5 b63d 7420 d7bf 481d b83d 800c 72bd
00000120: c8fc 3d3d d269 f03d 7b48 9c41 3996 9a3e
00000130: 1102 ccbf 8cc1 d5bd 6755 e0bf c222 febd
00000140: beec 9e3d 2c7f 303d c058 b0bf 61c1 d0bf
00000150: 0afa ddbf e839 e63c f007 d3bf 8ecc febd
00000160: 686e e8bc b19a 95bd d0c9 cbbf 6803 7cbd
00000170: 144f dbbf f088 adbf 59d3 03c0 c80c d23d
00000180: 960a c6bf 6185 2c41 d710 c5bf 18f5 50bd
00000190: f7df 0cc0 7001 1fc0 6b71 fabb 082a d6bf
000001a0: 2f95 e6bf a0ca 1fbc 7080 2abd 84a4 25bd
000001b0: 5184 cbbf 0034 d9bc b849 30bd 434a 6f41
000001c0: fe56 d0bd 2320 e5bf a16c ddbf 64ab 073d
000001d0: 94bd f1bf dfd7 cbbf d2e0 acbf d8e3 6b3d
000001e0: e15a 03c0 f9b4 cbbf 5d35 52c0 bfa4 85c0
000001f0: f4a0 ab3d d710 c6bf ee5e 1141 d31e 1c41
00000200: a297 1cc0 e005 d3bc c090 b7bf 0660 00c0
00000210: 76fe a1bd 4677 24c0 3972 28be 04a4 fcbd
00000220: 228a c5bd 883b fdbc 14c7 8041 5cd9 723e
00000230: d222 a73d 8c5e cdbd d6f7 eebf 626c bebd
00000240: 8f17 7dbc 7afb 97bd 41be 1cc0 2294 c0bf
00000250: cd34 b1bf e842 f2bc a1a9 22c0 4e35 e4bd
00000260: 1353 b73c e77a cebe 7398 f9be b44d 77bd
00000270: 9de1 dfbf 4e8e 49c0 247a dcbf d043 8c3d
00000280: 80cc eebf 120e 8641 6796 4bbf 60a2 353c
00000290: 41e8 31c0 d98c d2c0 8d99 8dbc 3830 18c0
000002a0: 0730 83bf 90c0 91bd 50cc e6bd 20f6 b63b
000002b0: b268 43bf f0ac e23c e87e ca3c b5a0 6041
000002c0: 3c13 efbd 7c92 ebbf 0692 e1be 1eb1 933d
000002d0: 3979 f2bf ea17 a83e c9f8 463f 33dc d7bd
000002e0: ae59 fcbf a2f1 2ac0 c5fb a7c0 ba51 2dc0
000002f0: 5e2a ab3d c835 f7bf 6d2f 6441 db18 5e41
-1.3579745 0.071740806 -1.6050812 -0.9346627 0.0018240362 -1.543491 -0.057048723 0.035029203
-0.113532096 -0.04612972 21.19778 0.5471382 -1.9373491 -0.07536322 -1.562994 -0.11197086
-0.040745303 0.043911695 -1.1734375 -1.678515 -1.9303244 -0.07517031 -1.3957169 0.12091869
0.018082187 -0.2957917 -1.7499857 -0.047610193 -1.7270585 -0.82348186 -1.4882306 -0.025058344
-1.6902031 5.55845 -1.4969805 0.045556024 -1.6676121 -1.8095373 -0.10152237 -1.259907
-1.5217384 0.10518806 0.065483734 0.03517477 -1.7071726 -0.095063254 -0.10709652 14.02821
0.051170245 -1.252547 -1.8742537 -0.07193816 -1.3978865 -2.0810199 -2.0263054 -0.013202535
-1.5353045 -0.6170625 -2.616022 -4.42247 -0.022054866 -1.2768233 6.2199697 10.158669
-1.1820297 -0.08702557 -1.5675244 -1.5141526 0.08930409 -1.6806779 0.0898996 -0.059093952
0.04638365 0.117389336 19.53539 0.30192736 -1.5938131 -0.10437307 -1.7526063 -0.12408973
0.07759999 0.04309003 -1.3777084 -1.6309015 -1.7341931 0.028103784 -1.6486797 -0.124413595
-0.028372958 -0.07304896 -1.5920963 -0.061526686 -1.7133508 -1.3557415 -2.0597746 0.10256344
-1.547198 10.782563 -1.5395764 -0.05101499 -2.2011697 -2.4844627 -0.007642915 -1.6731577
-1.8014277 -0.009752899 -0.041626394 -0.040440097 -1.5899755 -0.026514053 -0.043039054 14.95563
-0.101728424 -1.7900432 -1.7298776 0.033122435 -1.888598 -1.5925254 -1.350611 0.057590336
-2.0524218 -1.5914603 -3.284507 -4.1763606 0.08380309 -1.5473889 9.085676 9.757525
-2.446755 -0.025759637 -1.4341049 -2.0058608 -0.07909863 -2.5697799 -0.16449822 -0.12335971
-0.09645487 -0.030912176 16.097206 0.23715729 0.08160938 -0.10027799 -1.8669384 -0.09298016
-0.015447511 -0.07421012 -2.4491122 -1.5045207 -1.3844239 -0.029572919 -2.5416033 -0.111429796
0.02237848 -0.40328142 -0.48749122 -0.060376838 -1.7490727 -3.1493106 -1.7224774 0.06848872
-1.8656158 16.75687 -0.7952637 0.0110860765 -2.7798007 -6.5796933 -0.017285133 -2.377943
-1.0249032 -0.071168065 -0.11269438 0.0055835396 -0.7633163 0.027670354 0.024718717 14.039235
-0.116735905 -1.8404078 -0.4405672 0.07211517 -1.8943244 0.32830745 0.77723366 -0.105400465
-1.9714868 -2.670998 -5.2494836 -2.7081132 0.0835769 -1.9313288 14.261579 13.881068

fc2.bias f4 [3]
00000000: 3caa 11c0 ceda 88bf 089c 54bf
-2.2760153 -1.0691774 -0.83050585
