data/comparison_dqn_model_run_2.pth (torch, 3816 bytes, 4 tensors)

fc1.weight f4 [64, 2]
0	0xbe9f7d9b	-0.31150517
1	0x3e99d82a	0.30047733
2	0xc0a2e24f	-5.0901256
3	0xc0e0f017	-7.029308
4	0xbf8a3be2	-1.0799525
5	0x41c4677d	24.550531
6	0x3cb7d115	0.022438565
7	0x422162e2	40.346565
8	0xbeadebec	-0.33969057
9	0xb9a5389d	-0.00031513433
10	0xbef83c5e	-0.48483557
11	0x4204e3b4	33.222366
12	0x40bcca7b	5.899717
13	0xc1c913f8	-25.13475
14	0x3f1bba41	0.60831076
15	0xbf2437b9	-0.64147526
16	0xbf807cc2	-1.0038073
17	0xc1ccd4c1	-25.603884
18	0xbffe1560	-1.9850273
19	0xc1e4aea9	-28.585283
20	0x3ecc63d8	0.39919925
21	0x3f1df622	0.61703694
22	0xbc77cdc0	-0.015124738
23	0x3f08a5d5	0.5337804
24	0x3f0caf38	0.5495486
25	0xc0c07d97	-6.015331
26	0x3e80e298	0.25172877
27	0x41ee8634	29.815529
28	0x3eeb3e0a	0.4594577
29	0xbf25dcac	-0.64789844
30	0x3f32b275	0.69803554
31	0x3ecd70c6	0.40125102
32	0xc017b272	-2.3702664
33	0xc17074a4	-15.028477
34	0xbce67520	-0.028132021
35	0x3e15a5e4	0.14614064
36	0xc0071611	-2.1107218
37	0x41ba6ffd	23.304682
38	0x3e99e1a5	0.30054966
39	0xbec82cd7	-0.3909671
40	0xbe447bb2	-0.19187811
41	0x41b80008	23.000015
42	0x3f88edbe	1.0697553
43	0xc20f1a0e	-35.775444
44	0x3eb0b0e6	0.34509963
45	0x3e32d7d0	0.17465138
46	0xbdd03ac8	-0.10167462
47	0xbf00b152	-0.5027057
48	0x3f85394c	1.0408111
49	0xc0acf0bb	-5.404386
50	0xc0974aca	-4.7278795
51	0xbf6444ef	-0.89167684
52	0xbe74e45a	-0.23915234
53	0x3e98d292	0.29848152
54	0xc0c33f2b	-6.101461
55	0xc00cc902	-2.1997685
56	0xc08646d4	-4.196146
57	0x40195085	2.3955395
58	0xc0283ce7	-2.6287172
59	0xc104598d	-8.271863
60	0xbe2694ec	-0.16267747
61	0xc1f94a27	-31.161207
62	0x401fe186	2.4981399
63	0x414d3e94	12.827778
64	0x3ea53a1a	0.3227089
65	0x3dd24558	0.102671325
66	0x3e3ac8a5	0.18240602
67	0xc0ecc30f	-7.398811
68	0x3df31260	0.11868739
69	0xbe89fb8a	-0.26949722
70	0x3f42dd3b	0.7611882
71	0x415c016e	13.750349
72	0x3ea4b782	0.32171255
73	0xbd96ced8	-0.07363671
74	0x409bddff	4.870849
75	0xc1356480	-11.337036
76	0xc088c462	-4.2739725
77	0x410a6e9c	8.652004
78	0xbff8bb72	-1.9432204
79	0xc14186a6	-12.095373
80	0xbfa00f15	-1.2504603
81	0xc1e04522	-28.033756
82	0x3fed205d	1.8525501
83	0x4192debc	18.358757
84	0xc012e14e	-2.2950015
85	0xc12fd444	-10.989323
86	0xbf22bd8d	-0.6357048
87	0x411ffd5b	9.999354
88	0xbc2d8580	-0.010590911
89	0x3ec52d46	0.38511103
90	0x3f4e5933	0.8060486
91	0x419ba17a	19.453846
92	0xbfed07e2	-1.8518031
93	0xc1e18310	-28.188995
94	0x3e885a36	0.26631325
95	0x419643b3	18.783056
96	0x3fd5a947	1.6692284
97	0x40b099ea	5.5187883
98	0x3f13d333	0.5774414
99	0xc1f21c0d	-30.263697
100	0xbe504a49	-0.20340838
101	0xbed845bc	-0.42240703
102	0x4025db12	2.591496
103	0x413e1bb1	11.881761
104	0xbf149180	-0.58034515
105	0x41123bfa	9.139643
106	0xbd5751fb	-0.052568417
107	0xbf01aae4	-0.50651383
108	0x3fdf6c94	1.745501
109	0xc0d0c794	-6.5243626
110	0x3fe47a40	1.7849808
111	0x41b93c29	23.154375
112	0xbfbdcc7c	-1.4828029
113	0x41ca6142	25.29749
114	0xbfdd36fe	-1.7282407
115	0xc1e5bd5d	-28.717463
116	0x400628ff	2.0962522
117	0x414f94fc	12.973873
118	0xbe68a9d6	-0.22721037
119	0xc1a6af2b	-20.835531
120	0x3ef10fbe	0.47082323
121	0xbecf8fc2	-0.40539366
122	0x3f961d8b	1.1727766
123	0xc027b957	-2.6206872
124	0x3ed1ae92	0.409535
125	0xbf2fe6b2	-0.6871139
126	0xc05a7292	-3.4132428
127	0x41848930	16.566986

fc1.bias f4 [64]
0	0xbf2b35f0	-0.6687918
1	0xbf91af54	-1.1381631
2	0x3e813be3	0.25241002
3	0x3f4eca0f	0.80777067
4	0xbed2291d	-0.41046992
5	0x3de11683	0.10990622
6	0x40684f87	3.629854
7	0xbe9c2c35	-0.30502477
8	0x3ff33745	1.9001242
9	0x3fadd4bd	1.3580548
10	0xbe85ae00	-0.26109314
11	0xbe183870	-0.14865279
12	0x3f3d070b	0.7383887
13	0xbecaaf31	-0.39586785
14	0xbeb3a22b	-0.35084662
15	0xbf343281	-0.7038956
16	0x3ec89dcd	0.39182892
17	0xbefa029c	-0.48830116
18	0xbe9d9af2	-0.30782276
19	0xbe5d5c79	-0.21617307
20	0xbdb633fc	-0.08896634
21	0xbf0cd501	-0.5501252
22	0xbf07abb4	-0.52996373
23	0xbed387b8	-0.41314483
24	0x3fa4996c	1.2859321
25	0xbf714133	-0.9424011
26	0xbf28382f	-0.6571073
27	0xbfd254db	-1.6432146
28	0xbf122d7e	-0.57100666
29	0xbf9bb9ee	-1.2166116
30	0x3d1f0e8c	0.038832232
31	0x4059493b	3.3950946
32	0xbf1d1ae1	-0.6136914
33	0x3f0beab5	0.5465501
34	0xbf2e93f8	-0.6819453
35	0x3faa8982	1.3323214
36	0xbf2e841c	-0.6817033
37	0x40304fac	2.7548628
38	0xbfacab45	-1.3489767
39	0x3ffa416d	1.9551216
40	0x3f9128e6	1.1340606
41	0x402a002c	2.6562605
42	0xbf973718	-1.1813688
43	0x3e40cb7e	0.18827626
44	0xbedc0612	-0.4297338
45	0x3ed1bffc	0.40966785
46	0x3fa8ee44	1.3197713
47	0x3f7635ed	0.96176034
48	0x3feb392a	1.837682
49	0xbf02c0e2	-0.51075566
50	0xbe91adb3	-0.28452834
51	0x4060b72e	3.5111804
52	0x3e2ec46f	0.17067121
53	0xbdc02230	-0.09381521
54	0x3fa69852	1.3015234
55	0x3e724dd4	0.23662502
56	0xbf796af1	-0.97428805
57	0x3fa194f1	1.2623578
58	0x3f8b7da4	1.0897717
59	0x3eb8b20a	0.36073333
60	0xbf2a6acc	-0.6656921
61	0x3fb4c766	1.4123352
62	0xbe99e915	-0.3006064
63	0xc001f62d	-2.0306504

fc2.weight f4 [3, 64]
0	0x3d32f228	0.04368797
1	0x41565bec	13.397442
2	0xc097cb01	-4.7435308
3	0xc035b665	-2.8392575
4	0x3d9606bf	0.073255055
5	0x40993f69	4.7889905
6	0xbff63630	-1.9235287
7	0x3bf9caf0	0.007623069
8	0xc11efacc	-9.93623
9	0xbf9dce2c	-1.2328544
10	0xbd52e6bb	-0.051489573
11	0x3cb2e838	0.021839246
12	0xbf37128d	-0.7151268
13	0x40a14343	5.0394607
14	0xbdf2df8a	-0.11859043
15	0xbd427414	-0.047473982
16	0x4184f2b2	16.618504
17	0x3cc8ba50	0.024502903
18	0xc11287be	-9.15814
19	0xbb8f9768	-0.0043820627
20	0x413c3bb0	11.764572
21	0xbf99be05	-1.2011114
22	0xbc610950	-0.01373513
23	0x3d89ba6c	0.0672501
24	0xbe30aae0	-0.17252684
25	0xc1070be3	-8.440402
26	0x3d912e44	0.070889026
27	0xc105a1d1	-8.352006
28	0xc0ebbf57	-7.367107
29	0x413b6cc2	11.714052
30	0xc0380a1d	-2.8756173
31	0xc0b04974	-5.5089664
32	0xbd2dec78	-0.042461842
33	0xbfb7d7cd	-1.4362732
34	0xbdcddd06	-0.100519225
35	0xc00a2729	-2.1586401
36	0xbdd3135a	-0.103064254
37	0x40e8929e	7.2678976
38	0x3fc49e91	1.5360891
39	0xbfdca3e7	-1.7237519
40	0xbf1811d0	-0.5940218
41	0xc0812470	-4.035698
42	0xc0fef7a7	-7.967731
43	0x401a8ff1	2.4150355
44	0x3c929fa0	0.01789838
45	0x410272a5	8.152989
46	0xbf73f212	-0.95291245
47	0xbf62efe4	-0.88647294
48	0x3fabd055	1.3422953
49	0x4039d551	2.9036448
50	0xbe39a2a4	-0.18128449
51	0xc058e1ef	-3.38879
52	0x3fe31421	1.7740518
53	0x3d83d068	0.06436235
54	0xbf4aa51a	-0.79158175
55	0xc10142c3	-8.078799
56	0x41c59a37	24.7003
57	0xbf39b5c5	-0.72542983
58	0x41714710	15.079849
59	0x416b4358	14.703941
60	0x3d8d50a8	0.069001496
61	0x3f1a650f	0.60310453
62	0x3db0baee	0.08629404
63	0x4107ffd6	8.49996
64	0xbdc5538e	-0.096350774
65	0x413b7b15	11.717549
66	0xc07fda03	-3.9976814
67	0xc0bbc681	-5.8679814
68	0xbe4f20b3	-0.20227318
69	0x4142d222	12.176302
70	0xc08f34ba	-4.4751863
71	0xbdac886f	-0.0842446
72	0xbffd81cc	-1.9805236
73	0xc05c7981	-3.444916
74	0x3d4dd730	0.050254047
75	0xbd630bb8	-0.055431098
76	0xbf4a52bb	-0.79032487
77	0x409a0a15	4.8137307
78	0x3ddbdbfe	0.107353196
79	0x3dff6df8	0.12472147
80	0x4170be8a	15.046518
81	0xbb4af340	-0.0030967742
82	0xc0a48345	-5.141024
83	0xbd28ebfd	-0.04124068
84	0x4118abb7	9.541923
85	0xbfcac1e2	-1.5840418
86	0x3d0f6f6c	0.03501837
87	0xbd2c1980	-0.042016506
88	0xbec20986	-0.3789789
89	0xc0e2f64c	-7.0925655
90	0x3da863cc	0.0822216
91	0xc11174a2	-9.090975
92	0xc0b7e898	-5.747143
93	0x4111b6ad	9.107099
94	0x400c3364	2.1906366
95	0xc093cc98	-4.618725
96	0xbdf4454a	-0.11927278
97	0xbf8bc016	-1.0917995
98	0xbcdb7178	-0.026787505
99	0xc03fd5a3	-2.9974144
100	0xbded0de0	-0.11574912
101	0x4106425c	8.391201
102	0x40a66efe	5.201049
103	0xc034a209	-2.8223898
104	0xc048185a	-3.1264863
105	0xc04fc373	-3.2463043
106	0xc102303d	-8.136777
107	0xbf216789	-0.6304861
108	0x3c73f170	0.014889106
109	0x4016e439	2.3576796
110	0xc057603d	-3.365249
111	0xc065c2c5	-3.5900128
112	0x3ff86ac0	1.9407578
113	0x409f3153	4.974771
114	0xbe09fc7c	-0.13475221
115	0xc01e7493	-2.4758651
116	0xbf5e889f	-0.8692722
117	0x3dcf2071	0.101136096
118	0xbf37c233	-0.717807
119	0xc036bb08	-2.8551655
120	0x415fceb7	13.9879675
121	0xc0500931	-3.250561
122	0x416ee517	14.93093
123	0x4174139a	15.254786
124	0x3d0f560c	0.03499417
125	0x3d85ad79	0.06527228
126	0xbd406ce4	-0.046978846
127	0x414d7ba7	12.842689
128	0xbd001268	-0.031267554
129	0x4129b85b	10.607509
130	0xc0b62260	-5.691696
131	0xc0f3c510	-7.6178055
132	0x3e393fb3	0.18090706
133	0x417fbac0	15.983093
134	0xc0dac931	-6.8370595
135	0xbd72809c	-0.059204683
136	0x40fef936	7.9679213
137	0xc0e1e972	-7.0597467
138	0xbd2be40c	-0.04196553
139	0xbcfb87a8	-0.030704334
140	0x3f769884	0.9632647
141	0x4092be0f	4.5857005
142	0xbd9a0744	-0.07520917
143	0x3d656878	0.056007832
144	0x41439090	12.222794
145	0x3be8d260	0.007105157
146	0xbe75d38e	-0.24006483
147	0xbe3af12a	-0.1825606
148	0x4141e2f2	12.117907
149	0x41335f4e	11.210768
150	0x3d6f830c	0.058474585
151	0xbd080958	-0.033212036
152	0x3fa1d571	1.2643262
153	0xc05d6eff	-3.4598997
154	0xbdb535c2	-0.08848144
155	0xc0e38a98	-7.110668
156	0xbfcf6882	-1.6203768
157	0x40b2cc15	5.5874124
158	0x40cf4771	6.477471
159	0xc011a30e	-2.275577
160	0x3df4b9ca	0.11949499
161	0x3fa37663	1.2770504
162	0xbdd863f0	-0.105659366
163	0xc023d87b	-2.560088
164	0xbdfa6618	-0.12226504
165	0x411af435	9.684621
166	0x40fa2de6	7.818103
167	0xc0179aaa	-2.368815
168	0xc1095cf8	-8.585197
169	0xc094a5b9	-4.64523
170	0xc072bf37	-3.7929208
171	0xbfeead7f	-1.8646697
172	0x3dbf0634	0.09327355
173	0xc01ce8aa	-2.4517007
174	0xc0f9650f	-7.7935863
175	0xc091c31e	-4.555068
176	0x40a3d152	5.119302
177	0x40fff6e5	7.9988885
178	0xbdbc73de	-0.092017874
179	0xc0bce0ab	-5.9024253
180	0xbfeed011	-1.8657247
181	0xbdc7302a	-0.097259834
182	0x408e2672	4.442193
183	0x407c3c3f	3.9411771
184	0x3ff9df46	1.9521263
185	0xc1079505	-8.473882
186	0x411e809b	9.906398
187	0x41336b94	11.213764
188	0xbd4073f0	-0.046985567
189	0x3f95f5fc	1.1715693
190	0x3dbf9fe4	0.093566686
191	0x41002dca	8.011179

fc2.bias f4 [3]
0	0xbf303f75	-0.6884683
1	0xbf44365e	-0.7664546
2	0xbee5a104	-0.44849408
