data/comparison_dqn_model_run_2.pth (torch, 3816 bytes, 4 tensors)

fc1.weight f4 [64, 2]
0	0xbe9f7d9b	-0.31150517
1	0x3e99d82a	0.30047733
2	0xbee23f67	-0.44188997
3	0xc0307d07	-2.757631
4	0x3e9cd2ca	0.3062957
5	0xc048c88a	-3.13724
6	0xbd4b1987	-0.04958489
7	0xbfd6e4e5	-1.6788603
8	0xbea13fd5	-0.31494012
9	0x3ecf706d	0.40515462
10	0xbdc72a66	-0.09724884
11	0xbfae09c8	-1.3596735
12	0x3e2b214d	0.16711922
13	0xc099c4ab	-4.8052573
14	0x4019872c	2.3988752
15	0x41ff7cfb	31.936026
16	0xc03358b6	-2.8022895
17	0x40cfe78e	6.497016
18	0xbf0cc785	-0.5499194
19	0xbf509975	-0.81484157
20	0x3ecc63bf	0.3991985
21	0x3f1df55a	0.617025
22	0xbc77cdc0	-0.015124738
23	0x3f08a5d5	0.5337804
24	0xbe025eb5	-0.1273144
25	0xc0503507	-3.2532365
26	0x3e39eda7	0.18157063
27	0xc04486b5	-3.0707219
28	0x3eeb3e0a	0.4594577
29	0xbf25dcac	-0.64789844
30	0x3f32b275	0.69803554
31	0x3ecd70c6	0.40125102
32	0x40c101fb	6.0314918
33	0x411371ba	9.215265
34	0xbce67520	-0.028132021
35	0x3e15a5e4	0.14614064
36	0xbe7870ba	-0.24261752
37	0xbfb1e69b	-1.38985
38	0x3fab6812	1.3391135
39	0x41eb2ae4	29.395943
40	0x3f812283	1.0088657
41	0xc1b6f1e2	-22.868107
42	0xbd1c085a	-0.038093902
43	0xc03c3120	-2.9404984
44	0x3eb0b0e6	0.34509963
45	0x3e32d7d0	0.17465138
46	0xbdd03ac8	-0.10167462
47	0xbf00b152	-0.5027057
48	0xbf0ecb42	-0.55778897
49	0xc048a981	-3.1353457
50	0x3eaf1fff	0.342041
51	0xbf9e1c85	-1.2352453
52	0xbe74e45a	-0.23915234
53	0x3e98d292	0.29848152
54	0x3eba03cf	0.3633103
55	0xbfceaa97	-1.614581
56	0xbec63422	-0.3871165
57	0xbf57917e	-0.8420638
58	0x3ee18eaa	0.44054157
59	0xc03d35a6	-2.9563994
60	0xbf29ec50	-0.6637621
61	0xbf2954ce	-0.66145027
62	0xbf077465	-0.5291198
63	0xc09075e9	-4.5143933
64	0x3ea53a1a	0.3227089
65	0x3dd24558	0.102671325
66	0xbe821c73	-0.2541233
67	0xc000fd74	-2.0154696
68	0x3df31260	0.11868739
69	0xbe89fb8a	-0.26949722
70	0x3f0b1882	0.5433427
71	0xc02d1eb2	-2.7049985
72	0x3ea4b782	0.32171255
73	0xbd96ced8	-0.07363671
74	0xbee92534	-0.45536196
75	0x3f1e00b3	0.61719817
76	0xbfb5a1b7	-1.4189976
77	0xc192f243	-18.368292
78	0xbe402cb9	-0.1876706
79	0xc05780f3	-3.3672454
80	0xbccbfdc6	-0.024901282
81	0xc00f4031	-2.238293
82	0xbe8ee29e	-0.2790727
83	0xc03a2a39	-2.908827
84	0xbdb7d6f5	-0.08976547
85	0xbf885df3	-1.0653671
86	0x3e5cc4ae	0.21559402
87	0xbfdb64ea	-1.7140172
88	0xbc2d8580	-0.010590911
89	0x3ec52d46	0.38511103
90	0x3eb6f90e	0.3573689
91	0xc005ef75	-2.0927403
92	0xbedab32d	-0.42714825
93	0xbfdcf4aa	-1.7262166
94	0x3eeb3271	0.4593692
95	0xc02825ad	-2.6272995
96	0x3e31916b	0.17340629
97	0xbfe0f0a4	-1.7573438
98	0x3f92a5b9	1.1456825
99	0xc1b207e7	-22.253859
100	0xbe3af90f	-0.18259071
101	0xbed5e8f6	-0.41779298
102	0x3e2e815b	0.17041533
103	0xc0860014	-4.1875095
104	0x3e64e322	0.2235227
105	0xc019dc0b	-2.4040554
106	0xbc8b5057	-0.017006082
107	0xbee7acfe	-0.4524917
108	0xbe8277e8	-0.25482106
109	0xbffb4537	-1.9630498
110	0x3e89e77a	0.26934415
111	0xc0467aa5	-3.1012356
112	0x3ecab569	0.3959153
113	0xc00ee67f	-2.2328184
114	0x3e027466	0.12739715
115	0xc084e77c	-4.1532574
116	0xbf9705e8	-1.1798677
117	0x41b747db	22.910086
118	0x3ee6f861	0.45111373
119	0x41ce5511	25.791536
120	0x3ef10fbe	0.47082323
121	0xbecf8fc2	-0.40539366
122	0xbec2162e	-0.37907547
123	0xc03aedf4	-2.9207735
124	0x3ed1ae92	0.409535
125	0xbf2fe6b2	-0.6871139
126	0xc02effc6	-2.7343612
127	0x41581d3f	13.50714

fc1.bias f4 [64]
0	0xbf2b35f0	-0.6687918
1	0x3fcca911	1.5989095
2	0x3fe3280e	1.7746599
3	0x3fa09302	1.2544863
4	0xbed05d0d	-0.40695992
5	0x3ffe7b13	1.9881309
6	0x3f7370e0	0.9509411
7	0xbee3df04	-0.44506085
8	0xbfdc5fa1	-1.7216684
9	0x3fd34a79	1.6507102
10	0xbe85ae0c	-0.2610935
11	0xbe183870	-0.14865279
12	0x3fdda1ce	1.7315004
13	0x3fe7c141	1.8105851
14	0xbeb3a22b	-0.35084662
15	0xbf343281	-0.7038956
16	0x3f878378	1.0586996
17	0xbefa029c	-0.48830116
18	0x3fca6b2c	1.5813956
19	0xbe922f02	-0.2855149
20	0x3f21b1c3	0.6316187
21	0x3fcb7805	1.5896002
22	0xbf07abb4	-0.52996373
23	0xbed387b8	-0.41314483
24	0x3ffb0ec2	1.9613879
25	0x3ffda5bf	1.9816207
26	0xbf28382f	-0.6571073
27	0x3fd1c097	1.6386899
28	0x3ff9c5ee	1.9513528
29	0x40046cfb	2.0691516
30	0x3fe54ea2	1.7914622
31	0x3fc6b1c3	1.5522999
32	0xbf1d1ae1	-0.6136914
33	0x3feed6f2	1.8659346
34	0xbf2e93f8	-0.6819453
35	0x4009daf0	2.153988
36	0xbf2e841c	-0.6817033
37	0xbf1c9ca7	-0.6117653
38	0xbee81d0f	-0.4533467
39	0x3f7a03c8	0.9766202
40	0x3fac974f	1.3483676
41	0x3fa15f25	1.2607161
42	0x3fa7b878	1.310317
43	0x3fda84f4	1.7071824
44	0xbedc0612	-0.4297338
45	0x3ff20ba7	1.8909806
46	0x3fe5de03	1.7958378
47	0x3fc67939	1.5505744
48	0x3fb9f583	1.4528049
49	0x3f08c2dc	0.5342233
50	0xbe96c0f0	-0.29444075
51	0x3fbe4c5c	1.4867053
52	0x3fd8a640	1.6925735
53	0xbe06e2cc	-0.13172454
54	0x400a24b1	2.1584895
55	0x3ff591d4	1.9185128
56	0x3ffb1ff2	1.9619124
57	0x3fb3931e	1.4029272
58	0xbfa8ed7f	-1.3197478
59	0x3d3bda69	0.04586259
60	0xbf2a6acc	-0.6656921
61	0x3feece40	1.8656693
62	0xbe99e915	-0.3006064
63	0x3f2b2978	0.6686015

fc2.weight f4 [3, 64]
0	0x3d32f228	0.04368797
1	0xbf77c949	-0.9679151
2	0xbf812519	-1.0089446
3	0xbf6331f4	-0.887481
4	0x3d309d58	0.043118805
5	0xbfa132ac	-1.2593589
6	0xbebaa3dd	-0.36453143
7	0x4180f24f	16.118315
8	0x4128643e	10.524473
9	0xbf9a6c83	-1.2064365
10	0xbd52e5db	-0.05148874
11	0x3cb2e838	0.021839246
12	0xbf856c9f	-1.0423774
13	0xbf6d5af0	-0.92716885
14	0xbdf2df8a	-0.11859043
15	0xbd427414	-0.047473982
16	0xbf1a95d2	-0.6038486
17	0x3cc8ba50	0.024502903
18	0xbf8cfebd	-1.101524
19	0x415f464d	13.954663
20	0x411f4a92	9.955706
21	0xbf6fb00f	-0.9362802
22	0xbc610950	-0.01373513
23	0x3d89ba6c	0.0672501
24	0xbf8bf634	-1.093451
25	0xbfa3c4d2	-1.279444
26	0x3d912e44	0.070889026
27	0xbf813233	-1.0093445
28	0xbf9aafd3	-1.2084907
29	0xbf8d7725	-1.1051985
30	0xbf9d4170	-1.2285595
31	0xbf58b011	-0.84643656
32	0xbd2dec78	-0.042461842
33	0xbf96df82	-1.1786959
34	0xbdcddd06	-0.100519225
35	0xbf968a38	-1.1760931
36	0xbdd3135a	-0.103064254
37	0x3cca33a0	0.02468282
38	0x40f22307	7.566776
39	0xbf1a83c1	-0.6035729
40	0xbf606a46	-0.8766216
41	0xbf5c6781	-0.86095434
42	0xbf7a2002	-0.9770509
43	0xbf92cb9a	-1.1468384
44	0x3c929fa0	0.01789838
45	0xbf92433d	-1.142677
46	0xbf974330	-1.1817379
47	0xbf66140a	-0.8987433
48	0xbf779b7e	-0.9672164
49	0x41040568	8.25132
50	0xbdd04d7e	-0.101710305
51	0xbf44d845	-0.768925
52	0xbf869add	-1.051601
53	0x3c79d370	0.015248165
54	0xbf9a2c8b	-1.2044843
55	0xbf858d1c	-1.0433688
56	0xbfbffe49	-1.4999477
57	0xbf320068	-0.6953187
58	0x41d1cf21	26.226137
59	0x3fe1af61	1.7631646
60	0x3d8d50a8	0.069001496
61	0xbf8ee770	-1.1164379
62	0x3db0baee	0.08629404
63	0x3eeabde4	0.45848
64	0xbdc5538e	-0.096350774
65	0xbf5581c7	-0.8340115
66	0xbfbfd97d	-1.4988247
67	0xbf83d3e2	-1.0299037
68	0xbd997676	-0.07493298
69	0xbf99617c	-1.1982875
70	0xbf5098b0	-0.8148298
71	0x41435672	12.208605
72	0x4123a26d	10.227155
73	0xbf5b6b66	-0.8571075
74	0x3d4dd730	0.050254047
75	0xbd630bb8	-0.055431098
76	0xbf955e4f	-1.1669406
77	0xbfae782b	-1.3630422
78	0x3ddbdbfe	0.107353196
79	0x3dff6df8	0.12472147
80	0x4002a4b6	2.0413032
81	0xbb4af340	-0.0030967742
82	0xbf87b627	-1.0602463
83	0x41595819	13.584008
84	0x4130afe5	11.042943
85	0xbf950161	-1.1641046
86	0x3d0f6f6c	0.03501837
87	0xbd2c1980	-0.042016506
88	0xbf827735	-1.0192629
89	0xbfcb8206	-1.5899055
90	0x3da863cc	0.0822216
91	0xbfb2578e	-1.393297
92	0xbf83a081	-1.0283357
93	0xbfd2ef67	-1.647931
94	0xbf653fed	-0.8955067
95	0xbf46b211	-0.7761546
96	0xbdf4454a	-0.11927278
97	0xbf95bc72	-1.1698134
98	0xbcdb7178	-0.026787505
99	0xbfd2e474	-1.6475968
100	0xbded0de0	-0.11574912
101	0xbdb5e152	-0.08880867
102	0x4100d4dd	8.051969
103	0xbf11def7	-0.5698084
104	0xbf8a1160	-1.0786552
105	0xbf349bac	-0.70550036
106	0xbf823406	-1.0172126
107	0xbfb99ec1	-1.4501573
108	0x3c73f170	0.014889106
109	0xbfc30323	-1.5235332
110	0xbf8c9ba4	-1.0984998
111	0xbfb24444	-1.3927083
112	0xbfa5ebdb	-1.2962602
113	0x4128e77f	10.556518
114	0xbe148107	-0.14502345
115	0xbf8b734a	-1.0894558
116	0xbfaea266	-1.364331
117	0xbc87dfcf	-0.016586212
118	0xbfa452c4	-1.2837758
119	0xbfbba0ef	-1.4658488
120	0xbfdddff2	-1.7333968
121	0xbf86ada1	-1.0521737
122	0x41a8e5d0	21.112213
123	0x40e63b0a	7.194707
124	0x3d0f560c	0.03499417
125	0xbf82d9ca	-1.0222714
126	0xbd406ce4	-0.046978846
127	0x403f351d	2.9876168
128	0xbd001268	-0.031267554
129	0xbfa06128	-1.252965
130	0xbfd7ebf2	-1.686888
131	0xbf8725aa	-1.0558369
132	0xbd4e177f	-0.050315376
133	0xbfaf3ef2	-1.3691084
134	0xbfea8938	-1.8323126
135	0x412a3bfa	10.639643
136	0x412db5ce	10.856886
137	0xbf8463b2	-1.0342925
138	0xbd2be40c	-0.04196553
139	0xbcfb87a8	-0.030704334
140	0xbfb6b61b	-1.4274324
141	0xbfb6b44a	-1.427377
142	0xbd9a0744	-0.07520917
143	0x3d656878	0.056007832
144	0x409ffbe2	4.9994974
145	0x3be8d260	0.007105157
146	0xbf8c70a7	-1.0971879
147	0x4151e376	13.118032
148	0x4158ea3f	13.557189
149	0xbfa7d402	-1.3111575
150	0x3d6f830c	0.058474585
151	0xbd080958	-0.033212036
152	0xbfacf3d8	-1.3511915
153	0xbfb8d1cd	-1.4439026
154	0xbdb535c2	-0.08848144
155	0xbfab0a45	-1.3362509
156	0xbf9878e5	-1.1911894
157	0xbfdcc565	-1.724774
158	0xbf8117dc	-1.0085406
159	0xbfb333cb	-1.4000181
160	0x3df4b9ca	0.11949499
161	0xbfa6b5d0	-1.3024235
162	0xbdd863f0	-0.105659366
163	0xbfe23066	-1.767102
164	0xbdfa6618	-0.12226504
165	0x3ce3670a	0.027759094
166	0x4100bcb4	8.04607
167	0xbf849deb	-1.0360693
168	0xbf9b6d35	-1.2142702
169	0xbf99112a	-1.1958363
170	0xbf83953f	-1.0279921
171	0xbfb970e7	-1.448758
172	0x3dbf0634	0.09327355
173	0xbfca9c7f	-1.5829009
174	0xbf9e50cc	-1.2368407
175	0xbfc6c369	-1.5528384
176	0xbf9fad1f	-1.2474707
177	0x41467fc7	12.406196
178	0x3c880b96	0.016607087
179	0xbfd5fe6a	-1.6718266
180	0xbfb98483	-1.4493564
181	0x3d90a0bc	0.07061908
182	0xbfae39b1	-1.3611356
183	0xbfcab9b1	-1.5837919
184	0xbfe80736	-1.8127201
185	0xbfbdfa60	-1.4842033
186	0x413d71dc	11.840298
187	0x4155ad8e	13.354872
188	0xbd4073f0	-0.046985567
189	0xbfb11166	-1.3833435
190	0x3dbf9fe4	0.093566686
191	0x40d1ad65	6.5524163

fc2.bias f4 [3]
0	0xbfb17041	-1.3862382
1	0xbfd35bcf	-1.6512393
2	0xbfc605ac	-1.5470481
