data/comparison_dqn_model_run_4.pth (torch, 3816 bytes, 4 tensors)

fc1.weight f4 [64, 2]
000000 63 2c d0 be 1d b6 af c1 8a ab 07 3f 38 2f 6f c0
       -0.40658864 -21.963923 0.5299612 -3.737257
000010 94 cc 0e 3e b1 2c ad c0 93 88 30 3f 4e 0c e3 3e
       0.13945228 -5.4117055 0.68958396 0.44345325
000020 3a a8 ca 3e 1e fe 1e bf ca 5f c5 3e 46 f4 51 c0
       0.39581472 -0.621065 0.38549644 -3.2805343
000030 eb a2 0a 3e a7 ac a5 41 4d ac 14 3d 8a 6b 70 c0
       0.13538711 20.709303 0.03629713 -3.7565637
000040 7b cc a0 bd 81 ab b1 be cc 53 3e 3e 8f c5 4b c0
       -0.078515016 -0.3470116 0.18586653 -3.183933
000050 38 8c 9a bd 1e cb e2 3e 36 67 57 be ee b1 b8 be
       -0.07546276 0.4429559 -0.21035466 -0.3607325
000060 91 a2 44 3f f9 dc 91 41 d3 33 13 3f 79 5e 3b c0
       0.76810557 18.232897 0.5750095 -2.9276412
000070 ef 68 02 3f 89 db e1 be 21 60 a7 be 9c 14 26 3e
       0.50941366 -0.44112805 -0.32690528 0.162188
000080 aa a4 56 3f 69 b6 b9 41 a8 c1 f1 3d 88 e8 91 bd
       0.8384501 23.214067 0.11804515 -0.0712443
000090 4a 0a 20 40 b1 8f cd 41 4d 2e bc be 45 d3 f8 3e
       2.500628 25.695162 -0.36754075 0.48598686
0000a0 a5 63 00 bf 2f db ad be 3c 98 4e 3d 1f 5f 58 c0
       -0.50152045 -0.33956286 0.05043815 -3.3808057
0000b0 c1 81 29 3f a9 d6 0f 3f 5b 91 37 c0 0d 57 9d 3f
       0.66213614 0.5618692 -2.8682468 1.2292191
0000c0 2f ed 9c be 67 f1 20 3f 0a 20 20 bd 56 87 bf 41
       -0.30649707 0.6286835 -0.039093055 23.941082
0000d0 78 af 49 be b8 3c 5b be 53 db 4f 3f db 23 83 41
       -0.19695842 -0.21409881 0.8119404 16.392508
0000e0 4e f5 5d be 28 7b 46 c0 e6 94 f1 3e 60 20 34 bf
       -0.21675608 -3.1012669 0.47183913 -0.703619
0000f0 c8 bb 4b 3f 22 b4 00 c1 3b 53 0b 40 8c be d0 c0
       0.79583406 -8.043978 2.176955 -6.52326
000100 65 c7 f5 bd fb fd 0b 3f 93 7b d3 3b 94 88 1f c0
       -0.12000922 0.5468442 0.00645394 -2.492711
000110 0f 47 00 c0 72 52 94 c1 d9 fb 57 3e 06 2a 5e c0
       -2.004337 -18.540257 0.21092166 -3.471315
000120 4d 8c 92 bd 09 7d ef bf a7 19 ed bf 73 4f b2 41
       -0.071556665 -1.8710033 -1.8523453 22.288794
000130 a2 f7 e4 3d 2f 27 81 c0 83 a7 04 3f ae d1 f2 bf
       0.11180045 -4.036033 0.518181 -1.8970239
000140 48 a3 77 3e af eb 5a c0 4f ee b9 be ac f6 7a c0
       0.2418338 -3.420635 -0.36314628 -3.9213057
000150 c0 54 2c be 30 97 32 c0 4a 3b 87 3e 7b 8b 9f c0
       -0.16829205 -2.7904778 0.2641242 -4.9857764
000160 34 7c 8c 3e 0c 1c 05 3e 6e e3 d2 3e 4e 13 c3 be
       0.2743851 0.1299898 0.4118914 -0.38100666
000170 a3 44 21 3f 34 be d8 be e3 ed 23 3e d4 a2 c8 3e
       0.62995356 -0.42332613 0.16008715 0.39186728
000180 18 69 56 be 86 75 d3 3e fe 45 e4 3e 82 1e f3 bf
       -0.20938528 0.413006 0.4458465 -1.8993685
000190 4a cb ac 3e 62 ac c5 be ba a6 eb be 6e c6 05 bf
       0.33748847 -0.3860808 -0.4602564 -0.52255905
0001a0 d3 96 7b 3e fb 7c 46 c0 26 20 f9 be cf 73 d5 be
       0.24569254 -3.1013782 -0.4865734 -0.41689917
0001b0 9d 46 ab 3e e0 d6 0e c0 70 c1 da bd 33 ea 62 c0
       0.3345231 -2.231865 -0.106814265 -3.5455444
0001c0 2f 4c 9c be 33 35 02 be 68 db d7 3d 47 97 bd be
       -0.30526873 -0.12715606 0.10539895 -0.37029478
0001d0 a0 34 3e 3e dc f8 16 3e ca a9 79 be f2 e0 ce 3e
       0.18574762 0.1474337 -0.24381176 0.40405995
0001e0 7f e7 e5 3e b4 fa 0d c0 96 ff ea 3f bf 87 d3 c1
       0.4490318 -2.2184267 1.8359249 -26.441282
0001f0 16 db 93 40 01 03 8f 41 00 14 04 3d 18 73 69 3e
       4.620494 17.876467 0.032245636 0.22797811

fc1.bias f4 [64]
000000 7a ce 61 3e ab 9c 12 40 78 bf a6 3f 29 55 d1 be
       0.22051421 2.2908123 1.3027182 -0.40885285
000010 96 e2 0f bf f7 fe 04 40 15 d5 a4 3c 15 7f e3 3f
       -0.5620512 2.0780618 0.020121137 1.7773157
000020 21 42 05 be 03 81 07 40 aa f6 b4 be 5f 4e e7 be
       -0.13013507 2.1172493 -0.3534444 -0.4517698
000030 53 46 98 be ce 4e 07 40 96 36 aa be 40 13 16 bf
       -0.29741153 2.1141849 -0.3324477 -0.58623123
000040 cb 06 c8 be 60 95 43 be 18 3b 86 be 85 9e f0 be
       -0.39067683 -0.19099951 -0.2621696 -0.4699594
000050 a2 74 3e bf e9 b9 db 3f 10 b2 c3 be 57 bf d8 bf
       -0.7439672 1.716611 -0.38221788 -1.6933392
000060 5c e1 e1 be d1 5c 0a bf 51 40 9b be c6 1f 73 be
       -0.44117248 -0.54047877 -0.30322507 -0.2374259
000070 df 98 0d 40 e0 91 f4 be bb 33 45 3f db 3f c9 3f
       2.2124555 -0.47767544 0.7703206 1.5722612
000080 9b 74 1b be bd 64 fa 3f ee b6 51 bf 84 84 05 40
       -0.151812 1.9561993 -0.81919754 2.086213
000090 5f 0a 1c 40 59 4f de bf 27 14 18 40 cb f0 06 40
       2.438133 -1.7367965 2.37623 2.1084468
0000a0 cc 67 ef 3f 17 88 e2 3f 9a cd ea 3f 2d e8 cd 3f
       1.8703551 1.7697781 1.8343995 1.608648
0000b0 12 5d 28 bf 0c 9b 10 bf 6f 12 06 bf 10 14 45 be
       -0.65767014 -0.5648658 -0.5237188 -0.19245934
0000c0 29 b6 95 be 76 23 f1 3f a2 8d 28 bf ae 8c 30 bf
       -0.2924054 1.8838947 -0.65841115 -0.6896466
0000d0 ea 61 10 40 a3 19 1f bf b2 27 d0 3f 12 5d 04 40
       2.2559762 -0.62148494 1.6262114 2.0681806
0000e0 00 2b cd be 04 f8 be be 30 53 ce bd 40 a7 2a bf
       -0.4007187 -0.37298596 -0.100744605 -0.66661453
0000f0 77 41 07 40 8f 25 a3 3e 4f 5a 2a 3f 22 7c d2 be
       2.1133707 0.31864592 0.6654405 -0.4111033

fc2.weight f4 [3, 64]
000000 37 67 38 40 41 19 c2 bf 5b 6b 5a bf 80 3f c8 bd
       2.8812997 -1.5163957 -0.8532006 -0.09777737
000010 ca 1b 9e 3d de b3 00 c0 b4 fc dd c0 2e 5a 8b bf
       0.07720144 -2.0109782 -6.9370975 -1.0886896
000020 48 60 a8 3a da 2b ba bf 8e 90 f5 bd ae ff 91 3d
       0.0012846077 -1.4544632 -0.11990462 0.07128845
000030 7c bb 4a 41 ee 3b cf bf ba 29 83 bd e0 39 cf 3b
       12.670773 -1.6190164 -0.06404443 0.006324038
000040 fd 7c 44 41 40 9f c3 3d 7e ca 56 41 b6 90 dc 3d
       12.280515 0.09551859 13.424437 0.10769789
000050 4c 68 65 3e 40 e7 a2 bf f2 76 98 bd 45 1a 9c 40
       0.22403067 -1.2726822 -0.07444562 4.8782067
000060 b8 4e ae bc 08 03 38 41 f8 5a 98 3c da 2e ce c0
       -0.02127777 11.50074 0.018598065 -6.443219
000070 11 67 b9 bf 68 37 5c 3d 9d 69 94 be c7 3c e1 bf
       -1.4484578 0.053763777 -0.28986827 -1.7596673
000080 a2 6e ab bd c7 bf a9 bf fd d1 ee 40 b9 0e ab bf
       -0.08370711 -1.3261651 7.4631333 -1.3363868
000090 be 37 cb bf 91 7c 72 41 2e 4e b2 bf e0 96 c5 bf
       -1.5876386 15.155412 -1.3930109 -1.5436668
0000a0 ca 4b bc bf e9 88 95 bf 22 27 a8 bf 10 de 89 bf
       -1.4710629 -1.1682407 -1.3136942 -1.0770893
0000b0 aa 88 a7 3d b2 31 9a bd 82 d4 f5 3d d8 b8 85 3c
       0.081803635 -0.0752901 0.12003423 0.016323492
0000c0 16 aa c7 3d 66 8c bc bf 98 85 d8 bc aa 41 9b bd
       0.09749238 -1.4730346 -0.02643089 -0.07580884
0000d0 70 da cb bf 5c 0a 0e bd ba 88 9c bf da 1f 9f bf
       -1.5926037 -0.03467785 -1.2229226 -1.2431595
0000e0 a0 cb a2 3d 50 9f 42 3c 28 ca d2 bc 46 e7 b0 bd
       0.07948995 0.011878803 -0.025731161 -0.08637862
0000f0 ac 13 d1 bf ce 54 97 41 42 0c d0 40 2a ac 85 bd
       -1.6334128 18.916409 6.5014963 -0.06526978
000100 80 12 15 41 c6 b1 de bf 99 ae 29 bf ba df f5 bd
       9.317017 -1.7398002 -0.6628204 -0.12005563
000110 98 70 72 3d 45 4b 00 c0 ca e4 f6 40 c9 de 9c bf
       0.05918941 -2.004594 7.7154284 -1.2255489
000120 3f c0 e3 bc 66 04 c0 bf 38 83 3c 3d e8 3a 31 3d
       -0.027801631 -1.5001342 0.046023577 0.043269068
000130 c7 f0 1a 41 67 5c 03 c0 4c 9e 59 3d 32 13 87 bd
       9.683784 -2.0525148 0.05312948 -0.06595458
000140 0e 6a 40 41 d0 ac a8 3d b5 a5 35 41 a4 d5 f0 3d
       12.025892 0.08236086 11.352956 0.11759499
000150 cc 78 fb be ff 5c 93 bf d8 74 07 bd 8a d2 88 40
       -0.49115598 -1.1512755 -0.033070415 4.2757006
000160 50 03 af 3c d4 52 23 41 28 63 7c bd ab 01 64 bf
       0.021363884 10.207722 -0.061618 -0.89065045
000170 29 1b a0 bf de d6 ce 3d 8c 25 3b 3f a7 af 4b c0
       -1.2508289 0.100995764 0.73104167 -3.182596
000180 6d b4 b1 bd bb 00 a3 bf ee ec ad 40 7c e2 b2 bf
       -0.086769916 -1.2734598 5.435172 -1.3975368
000190 84 9b ca bf 01 73 96 41 32 ee c9 bf 18 64 fb bf
       -1.582871 18.806154 -1.5775816 -1.9639921
0001a0 fe 20 cc bf c2 7a 7d bf a5 9a 8f bf 30 70 8a bf
       -1.5947568 -0.9901544 -1.1219069 -1.0815487
0001b0 50 19 a9 bc 74 30 82 bd 96 31 e5 3d 5d f6 9a bc
       -0.020641953 -0.06356898 0.111910984 -0.018916303
0001c0 f0 b6 32 bd 2e b0 e3 bf a0 ba 42 3c ec 4c 68 bd
       -0.043631494 -1.7788141 0.011885315 -0.056713983
0001d0 14 12 df bf 78 02 19 bd d3 41 af bf 62 73 ab bf
       -1.7427392 -0.03735587 -1.3691963 -1.3394587
0001e0 9b d5 dc 3d f4 ed 20 bd 56 4f 9a bd f0 5d aa bc
       0.107829295 -0.03928943 -0.075346634 -0.020796746
0001f0 d2 d2 e9 bf 5b 7c 0b 41 cf f6 9f 40 c0 4d 15 3d
       -1.8267462 8.71786 4.998878 0.0364511
000200 43 39 d9 40 60 6a e2 bf 42 43 db bf f0 78 88 3c
       6.78824 -1.7688713 -1.71299 0.01665923
000210 50 99 88 bc 00 f8 09 c0 0e e4 26 41 73 63 af bf
       -0.016674668 -2.1557617 10.430677 -1.3702224
000220 ac 25 5c 3d d1 0d c8 bf e4 14 7b bd 5c 21 04 bd
       0.053746864 -1.5629216 -0.06129922 -0.032258376
000230 b4 9d da 40 d9 69 d1 bf a6 1d e7 3d 14 fe 9b bd
       6.831751 -1.6360427 0.11284952 -0.07616821
000240 d6 bc 17 41 12 42 9b bd 2f e8 16 41 9b 76 1b bd
       9.483603 -0.07580961 9.431685 -0.037954908
000250 59 4e 0d bf cb 08 b4 bf 10 7c 16 bc 08 40 81 40
       -0.55197674 -1.4065183 -0.009184852 4.0390663
000260 84 18 43 bd 1a 39 22 41 e0 0f 8d bd 78 ca 53 40
       -0.0476308 10.138941 -0.068877935 3.3092327
000270 8f 87 ad bf d0 53 9a 3c 71 a3 5f c0 6c e3 87 c0
       -1.3556994 0.018838793 -3.4943507 -4.2465115
000280 7b 70 13 3d 50 49 9c bf ae 62 dc 40 40 fa bc bf
       0.03599594 -1.2209873 6.887046 -1.476387
000290 da 57 a1 bf 30 4b 95 41 7a 6f cd bf ba c0 b7 bf
       -1.2604935 18.661713 -1.6049645 -1.435569
0002a0 94 2c d6 bf e6 ba af bf ef 40 a1 bf c9 10 dc bf
       -1.6732354 -1.3728912 -1.2597941 -1.7192622
0002b0 24 18 7e 3d 1e 89 8b bd 7c 74 17 bd d8 33 c6 bc
       0.06203474 -0.068132624 -0.036976323 -0.024194643
0002c0 94 e9 f2 3d 6e 93 af bf c0 60 84 bd 48 89 64 bd
       0.11860958 -1.3716867 -0.06463766 -0.055794984
0002d0 e6 78 c2 bf 0a 4f ad 3c a0 4a a1 bf ff 87 a6 bf
       -1.5193145 0.021155853 -1.2600899 -1.3010253
0002e0 0e e3 a6 bd 80 0a 6b 3b 3a 66 d4 bd c8 77 99 bc
       -0.08148776 0.0035864413 -0.10371061 -0.018733874
0002f0 a7 d1 b8 bf 71 7d ab 41 69 56 df 40 20 c3 65 bc
       -1.4438981 21.43625 6.979298 -0.014023572

fc2.bias f4 [3]
000000 f8 1b f9 bf 10 ca 09 c0 a1 e7 a6 bf
       -1.946166 -2.152958 -1.3039438
