data/comparison_dqn_model_run_0.pth (torch, 3816 bytes, 4 tensors)

fc1.weight f4 [64, 2]
00000000: 5f0c a0be 3c6b e2c0 7891 d1bd ec21 283f
00000010: 1d31 fcbf c989 0bc0 82f2 e7c0 ac2d 4e41
00000020: 8993 1f3f 06cd 04bf 4232 18bf 28fb fec0
00000030: ad29 65bd 8f41 c441 1a92 ae3e 6877 ccbd
00000040: 958b 0b3f d80c d63d 9c03 a9be ec90 383e
00000050: 7e92 1940 ffe0 3941 beae 77be bf76 fa3e
00000060: 8c07 fcbf c104 bbc1 0c76 4cbe 13af d9be
00000070: 29f1 b6bf 19dd 45c1 ef7a 233f 2ac5 19bf
00000080: bb30 d33f 23f2 0ac2 9cf2 16bf 2f6c 8fc1
00000090: 8de2 0dbf 796f ae41 089a 7cbf 7411 13c1
000000a0: 69d2 c3bf 32ce ddc0 e25d 983e 399e 213f
000000b0: 0906 39c0 7b53 27c1 fefd d03e 708e 013e
000000c0: 33f6 8b3e f430 fbbe ab41 4ac0 eb97 2241
000000d0: a0b4 40c0 ce0d ae3f 948e 503e 18f6 953e
000000e0: 7ebc a6bf 8622 06c1 57bf 2540 e415 1cc1
000000f0: 1491 dabf ed29 97c1 4c45 5f3e 025c 79be
00000100: d3db 00c0 4feb 31c0 6fd2 3ec0 e51c 0940
00000110: d72b 2640 ee46 be40 09d1 223f b04c 713e
00000120: 42ef 99bf 6ddc dec0 ceea 9e40 a6c9 02c1
00000130: 4076 78be d077 94c1 fc14 09c0 59de f3bf
00000140: 1686 8a3d efa6 e241 fe16 c03e 7056 92be
00000150: daba db3e f4d2 2bbe 1611 893e 06fe 22bf
00000160: b658 04c0 4fe7 f1bf 5013 193e 209c 38be
00000170: dacc d73e 021e f63e a883 fa40 3d60 8140
00000180: a5c0 253f c653 74be 668a a0bf 23cb 80c1
00000190: f81d 1fc0 3a38 c0bf 8025 bfbd 3f66 03bf
000001a0: 5415 7abf 92fa 19c1 4373 09c0 8372 82c1
000001b0: 89e1 69c0 85a8 e841 325a 0dbf 618b 67c1
000001c0: b00b 9fbf ae48 09c1 c6bd f0bf 7ac5 b6c1
000001d0: dd71 c240 5b06 cabf 3b54 9440 9675 8f3f
000001e0: 006c 003b 3bb7 86be 9ab2 adbf fcbd aa41
000001f0: 67ab c5bf 8d00 9a3f d09c f4bd e74f 12bf
-0.31259438 -7.07559 -0.10232824 0.6567676 -1.9702488 -2.1802847 -7.248353 12.88615
0.62334496 -0.5187534 -0.5945169 -7.9681587 -0.05594795 24.532011 0.34095842 -0.099837124
0.5450986 0.104516685 -0.33010566 0.18024033 2.3995662 11.617431 -0.24187753 0.4891872
-1.9689803 -23.377321 -0.19966906 -0.42516384 -1.4292346 -12.366479 0.63859457 -0.60066473
1.6499246 -34.73646 -0.5896394 -17.927824 -0.55423814 21.80443 -0.98672533 -9.191761
-1.5298587 -6.9314203 0.29759127 0.63132054 -2.8909934 -10.457881 0.4081878 0.12651992
0.27336273 -0.49060786 -3.160258 10.162089 -3.0110245 1.3597963 0.20366889 0.29289317
-1.3026273 -8.383429 2.5898035 -9.755344 -1.7075524 -18.895472 0.21803778 -0.24351504
-2.013417 -2.779987 -2.9815938 2.1423886 2.5964258 5.9461584 0.6360021 0.2356441
-1.2026141 -6.9644074 4.9661627 -8.174231 -0.24263859 -18.558502 -2.1419058 -1.905223
0.06763856 28.33151 0.37517542 -0.28581572 0.42915994 -0.16779691 0.26770848 -0.6366886
-2.0679145 -1.8898715 0.14948773 -0.18028307 0.42148477 0.4806977 7.8285713 4.042998
0.6474708 -0.23860082 -1.2542236 -16.099188 -2.4862041 -1.5017159 -0.093333244 -0.5132789
-0.97688794 -9.623674 -2.14766 -16.305914 -3.6543906 29.082285 -0.5521575 -14.471528
-1.2425442 -8.580244 -1.8807914 -22.846424 6.0763993 -1.578319 4.635282 1.1207759
0.0019595623 -0.2631167 -1.357013 21.342766 -1.5442933 1.2031418 -0.11943972 -0.5715317

fc1.bias f4 [64]
00000000: 9296 d33f 0f93 50be 96e0 6d3f ac43 36c0
00000010: 6049 19bf 08f2 b43f e79f 00bc 63c7 8abe
00000020: 4142 16bf 59f6 33bf 14d4 8640 7e62 9cbe
00000030: 36ab a13f 538e 14bf 586a 683f bfe0 04bf
00000040: 72a5 673f b04b 543e 49ac f9be 78ee 823f
00000050: c635 853f c488 0fbf bf8a eabf e4b8 9bbe
00000060: fac5 26be e537 bcbf fff9 f83e f6db 04bf
00000070: 52e2 513f 8b67 4d40 6268 8b3f 1ebc c3be
00000080: d53a 863f cd57 b7bf d0b0 0740 2f86 1fbf
00000090: e871 833f 20b4 c13f 2108 003e 6475 483f
000000a0: d63c 563d b54e c8be eb3d b7be 2b30 38be
000000b0: 9320 2b3f b806 39be f791 cebe cfb3 fc3f
000000c0: 283c 07bf cab5 583f d762 333f 3d6b 2abf
000000d0: b1ce 883f 2810 aa3f e98b 07c0 029c 473e
000000e0: af9c 513f d8dc 9b3f 84bc d73f 3761 8440
000000f0: 90bc 3fbe 53e3 3c3e 5843 a03f c260 a9be
1.6530325 -0.20368598 0.92920816 -2.8478804 -0.59877586 1.4136362 -0.007850624 -0.27105245
-0.58694845 -0.7029777 4.2133884 -0.30543894 1.2630374 -0.5802967 0.9078727 -0.51905435
0.90486825 0.20731997 -0.48764256 1.0229025 1.0407035 -0.5606806 -1.8323592 -0.30414498
-0.1628646 -1.4704558 0.48628232 -0.51898134 0.8198596 3.2094448 1.089123 -0.3822946
1.0486704 -1.432367 2.1201668 -0.6231412 1.0269136 1.5133095 0.12503101 0.78304124
0.05230411 -0.3912255 -0.35789427 -0.17987125 0.6684658 -0.18068969 -0.40345737 1.9742373
-0.52826166 0.8465239 0.7007269 -0.6656988 1.0688077 1.328618 -2.1179144 0.19493106
0.81879705 1.2176771 1.6854405 4.136867 -0.18724275 0.18446092 1.2520552 -0.33081633

fc2.weight f4 [3, 64]
00000000: 2e6d 44bf f473 883d 3d21 d8bf 07c8 1ac1
00000010: 8014 ef3a d2e4 a3bf 5644 2241 c87a 0f3d
00000020: 8483 e8bd 84f2 3cbd 292a 3e40 a5b8 5c3e
00000030: b46f cabf 0858 9abd 019e cfbf fa50 e5bd
00000040: 4b9b 6a40 7df4 6341 8db8 2f41 a23b a6bf
00000050: 4c5a d6bf e4f2 99bd aeb2 4b41 38a4 f73d
00000060: 1821 943c b5a2 3341 26b5 b6bf e802 43bd
00000070: bd07 c6bf 4bd4 593f e076 d9bf 2847 cdbc
00000080: 66ce eabf 031c 7b41 a61c a2c0 f498 3a3d
00000090: ea94 d5bf 02e6 c4c0 c89d 3341 18e9 dabf
000000a0: f4a2 f23b d66c d73d 561c 863d 4c95 013d
000000b0: ddbe c5bf 86b0 c2bd 6c55 dbbd 56fd cd40
000000c0: e497 513d c90d b0bf cb54 d4bf 5054 93bd
000000d0: d638 a1bf 1454 cdbf adf5 7441 29f3 1941
000000e0: 6ded b7bf e414 d6bf 8fcb 89c0 b417 19c0
000000f0: 68ac b4bc e477 f0c0 d3bd debf 319a fdbd
00000100: 9ed0 93bf 763a b2bd d09a cdbf 7a98 28c1
00000110: 10e5 b63d d0aa 8fbf 4741 5541 800c 72bd
00000120: c8fc 3d3d d269 f03d dac0 7340 1646 e7bd
00000130: e24c d1bf 8cc1 d5bd 404f babf c222 febd
00000140: 77b9 e340 0262 4c41 1a83 75c0 1e29 acbf
00000150: b921 bbbf e839 e63c a1bc 1041 8ecc febd
00000160: 8fdd 763d a3f4 6241 7798 b7bf 6803 7cbd
00000170: b90c b8bf 28e5 12c0 25ab cdbf c80c d23d
00000180: 0b71 d1bf f062 8441 b55e 58c0 18f5 50bd
00000190: 1aa9 bdbf bcbc b4c0 6966 6141 33ae d1bf
000001a0: eca8 df40 a0ca 1fbc 7080 2abd 71de 4e3d
000001b0: 60cd c2bf 0034 d9bc b849 30bd 780e f340
000001c0: fe56 d0bd a8eb e3bf 0cb4 d7bf 64ab 073d
000001d0: a9b7 eebf 4cea d1bf 9ed1 5a41 598d 3c41
000001e0: 7208 b8bf 91e7 b7bf 5941 43c0 3325 98c0
000001f0: f4a0 ab3d 1123 33c0 0361 37c0 bbd5 4a3c
00000200: 6e2c 01c0 e005 d3bc debf 463e bec2 dac0
00000210: 76fe a1bd 6ffe dfbf 9924 0241 04a4 fcbd
00000220: 228a c5bd 883b fdbc d84e 8d40 d209 163e
00000230: 70f9 a4c0 8c5e cdbd 1774 0dc0 626c bebd
00000240: 16d4 5341 77b1 8241 0ffa 73c1 0b2e 94bf
00000250: af36 18bf e842 f2bc 465d 2341 4e35 e4bd
00000260: 7cf0 cebd d864 3a41 490e ee3f b44d 77bd
00000270: 7d8d 91bf 3497 a1c0 5bb1 82c0 d043 8c3d
00000280: ebd7 28bd 923e 2f41 8573 23c0 60a2 353c
00000290: a58b 8abf 397d a9c0 13ee 5641 c665 053f
000002a0: 571a 5241 90c0 91bd 50cc e6bd df23 6abd
000002b0: fdc0 373f f0ac e23c e87e ca3c f692 0f41
000002c0: 3c13 efbd ef5e 72c0 de28 7c3f 1eb1 933d
000002d0: 7b4a e6bf 64a1 4ec0 28e1 0a41 446c 0041
000002e0: 484f 97bf 9702 b6c0 292a 24c0 4d30 b3c0
000002f0: 5e2a ab3d 08a9 16c0 edc3 aebf 79e3 0a3e
-0.76729095 0.06662741 -1.6885144 -9.673835 0.0018240362 -1.2804205 10.141684 0.035029203
-0.113532096 -0.04612972 2.9713233 0.21554811 -1.5815339 -0.07536322 -1.6220094 -0.11197086
3.6657283 14.2471895 10.982556 -1.2986948 -1.6746306 -0.07517031 12.731123 0.12091869
0.018082187 11.227223 -1.4274032 -0.047610193 -1.5471112 0.8508956 -1.6989403 -0.025058344
-1.8344238 15.694339 -5.065997 0.045556024 -1.668607 -6.153077 11.226021 -1.7102385
0.0074046794 0.10518806 0.065483734 0.03163652 -1.5448872 -0.095063254 -0.10709652 6.437175
0.051170245 -1.3754207 -1.6588377 -0.07193816 -1.259547 -1.6041284 15.309979 9.621865
-1.4369332 -1.6725125 -4.3060985 -2.3920717 -0.022054866 -7.514635 -1.740168 -0.12382925
-1.154804 -0.08702557 -1.606287 -10.537226 0.08930409 -1.1224003 13.328437 -0.059093952
0.04638365 0.117389336 3.8086457 -0.11292665 -1.6351588 -0.10437307 -1.4555435 -0.12408973
7.1163898 12.773928 -3.8361268 -1.3450048 -1.4619666 0.028103784 9.046052 -0.124413595
0.06026989 14.184726 -1.4343404 -0.061526686 -1.4378883 -2.2952366 -1.6067854 0.10256344
-1.6362623 16.54831 -3.3807805 -0.05101499 -1.4817231 -5.648039 14.0875025 -1.6381286
6.9893703 -0.009752899 -0.041626394 0.050505105 -1.5218925 -0.026514053 -0.043039054 7.595516
-0.101728424 -1.7806292 -1.6851821 0.033122435 -1.8649799 -1.6399627 13.676176 11.784509
-1.4377577 -1.4367543 -3.0508635 -4.754541 0.08380309 -2.7990153 -2.8652961 0.012380059
-2.0183368 -0.025759637 0.19409129 -6.8362722 -0.07909863 -1.7499522 8.133935 -0.12335971
-0.09645487 -0.030912176 4.4158745 0.14652184 -5.155449 -0.10027799 -2.2102106 -0.09298016
13.239279 16.336653 -15.248549 -1.1576551 -0.5945844 -0.029572919 10.210272 -0.111429796
-0.101044625 11.64962 1.859811 -0.060376838 -1.1371304 -5.0497074 -4.08415 0.06848872
-0.04122154 10.952776 -2.5539258 0.0110860765 -1.0823866 -5.296536 13.433124 0.5210842
13.131431 -0.071168065 -0.11269438 -0.057163116 0.7177885 0.027670354 0.024718717 8.973379
-0.116735905 -3.7870443 0.9849986 0.07211517 -1.799148 -3.2286005 8.67997 8.026432
-1.182107 -5.687816 -2.5650733 -5.599646 0.0835769 -2.3540668 -1.3653542 0.13563336

fc2.bias f4 [3]
00000000: a31f 8ebf bb39 90bf b22d 5abf
-1.1103405 -1.1267618 -0.85225976
