data/comparison_dqn_model_run_1.pth (torch, 3816 bytes, 4 tensors)

fc1.weight f4 [64, 2]
0	0xbf1d65f2	-0.6148368
1	0x3e9710b5	0.29504934
2	0xbf14f338	-0.5818362
3	0x41993772	19.152073
4	0xc03939b3	-2.8941467
5	0x418f6bfe	17.92773
6	0xc0662611	-3.5960734
7	0xc14e48c9	-12.89277
8	0xbeeeb0cc	-0.4661926
9	0x3e17e854	0.1483472
10	0x3ddf4658	0.10902089
11	0xbdaa2ae8	-0.08308965
12	0xbe1f298e	-0.15543196
13	0xc134d3d9	-11.301721
14	0xc003b756	-2.058065
15	0x41f33a94	30.403603
16	0x3e3f8510	0.18703103
17	0xbf2473cd	-0.642392
18	0x3e233634	0.15938646
19	0xbf09e052	-0.5385791
20	0xbf9289d0	-1.1448307
21	0xc222d90a	-40.711952
22	0x3f1e0a7a	0.61734736
23	0x4187e2e3	16.985785
24	0xbd337f70	-0.043822706
25	0xbe3ae9ac	-0.18253201
26	0x3f1725ff	0.5904235
27	0xc1556b6b	-13.338725
28	0x408e643e	4.4497366
29	0xc186f860	-16.871277
30	0x3e9d69ee	0.3074488
31	0xbed35dbb	-0.41282448
32	0x3ca752c9	0.020425217
33	0xc1430edf	-12.191131
34	0x3d825488	0.06363779
35	0x3efb181a	0.49041826
36	0xbfdfd6c4	-1.7487416
37	0xc1b7993b	-22.94982
38	0x3e52e2b4	0.20594293
39	0xbe242138	-0.16028297
40	0x3f8d5358	1.104106
41	0xc1c01f9f	-24.01544
42	0x3fbf1384	1.4927831
43	0x41a0d2a0	20.102844
44	0x400a3cd9	2.1599638
45	0x41546093	13.273578
46	0xc006bd93	-2.1053207
47	0xc1d14e3b	-26.163198
48	0x3eb74d24	0.3580104
49	0xbe8ac674	-0.27104533
50	0x3daed378	0.08536428
51	0xbdb08ca0	-0.08620572
52	0x3f225dd5	0.63424426
53	0x3d841ce8	0.06450826
54	0xbe9368dc	-0.2879094
55	0x3ea980e0	0.33106136
56	0xc094625a	-4.637006
57	0xbfd3ee5b	-1.6557115
58	0xbe23fa49	-0.16013445
59	0x3f03378d	0.5125664
60	0x3e25356a	0.16133657
61	0xc18b06bb	-17.378286
62	0x3ef9b74b	0.48772654
63	0xbc254885	-0.010088091
64	0x3e886971	0.26642945
65	0xc21ab1cd	-38.673634
66	0xbf49401d	-0.78613454
67	0x41ac826a	21.563679
68	0x408f63d5	4.4809365
69	0xc11524e9	-9.321511
70	0x3f153603	0.5828554
71	0xbf22b1e7	-0.6355271
72	0xbf0272d7	-0.5095648
73	0x41b14bf5	22.162088
74	0x3e921598	0.285321
75	0xbbfc3480	-0.007696688
76	0xbe515261	-0.20441581
77	0xc209fac7	-34.4949
78	0x400209f9	2.0318587
79	0x4054dba8	3.3259068
80	0xbdcf2bdc	-0.101157874
81	0xc1724485	-15.141728
82	0x4038acb0	2.88554
83	0xc1d636b2	-26.776707
84	0x3cac3ce0	0.021025121
85	0x3f27fc37	0.65619224
86	0x3eeb748e	0.45987362
87	0xbed75184	-0.4205438
88	0x3d1279f0	0.03576082
89	0xbe84763f	-0.25871465
90	0xc091d185	-4.556826
91	0xc11f55c1	-9.958436
92	0xbfef07f5	-1.8674303
93	0xc1c4c113	-24.594275
94	0xbe14dc84	-0.14537245
95	0xc10c4fd7	-8.769492
96	0xc003ccda	-2.0593781
97	0xc1de68e8	-27.801224
98	0xbe34bda0	-0.17650461
99	0xc125ef55	-10.370931
100	0x3f5b856f	0.8575048
101	0x419dcf2a	19.726154
102	0x3e6eedd4	0.23332912
103	0xc1419e6c	-12.101177
104	0xbeae8d91	-0.34092382
105	0xbe4f7d90	-0.20262742
106	0x407a5b29	3.911814
107	0xc0be3a02	-5.944581
108	0x3eff7fc1	0.49902156
109	0x4162ea3a	14.182184
110	0x3da7f660	0.08201289
111	0xbf0ce98f	-0.5504388
112	0xc0247d73	-2.5701568
113	0xc15786ae	-13.470381
114	0xbfbcc713	-1.4748253
115	0x419e1a09	19.762712
116	0xbda94e9c	-0.08266947
117	0xc10b0609	-8.688973
118	0x3f3c3f8a	0.7353445
119	0x4175353c	15.325497
120	0x3e6218a0	0.22079706
121	0x3e69bd24	0.22826058
122	0xbf3dc918	-0.7413497
123	0xc202b53e	-32.676994
124	0xc023d6df	-2.5599897
125	0xc1962002	-18.765629
126	0xc037a700	-2.8695679
127	0x3f69942c	0.9124172

fc1.bias f4 [64]
0	0x3f9dc38b	1.23253
1	0x3f75e79e	0.96056545
2	0xbfaee066	-1.3662231
3	0xbff2c87b	-1.8967432
4	0xbf313ef5	-0.6923669
5	0xbe4c0304	-0.19923025
6	0x3fb83747	1.4391869
7	0xbfabfce6	-1.3436553
8	0xbf20705d	-0.6267145
9	0xbe4a3874	-0.19748098
10	0x3f2c34b6	0.6726793
11	0xbcb28c58	-0.021795437
12	0xbededca2	-0.43527704
13	0x3feb59a8	1.8386736
14	0x40b8492c	5.758932
15	0xbf2e0251	-0.67972285
16	0x3fadf176	1.3589313
17	0xbeec45d9	-0.4614704
18	0x3ec629a0	0.38703632
19	0xbf00aae5	-0.50260764
20	0x3fe25ff9	1.7685539
21	0x400ee76d	2.232875
22	0x402d0d59	2.7039397
23	0x3fae6df4	1.3627305
24	0xbe7dd264	-0.24787289
25	0xbf277baa	-0.6542307
26	0xbee2e70e	-0.44316906
27	0xbee2b882	-0.44281393
28	0xbff642dd	-1.9239155
29	0xbe4f0aba	-0.20218936
30	0x3eb61a9e	0.35567182
31	0xbe8bb38b	-0.27285418
32	0x3d565eb7	0.05233642
33	0x3f83431f	1.0254859
34	0x40156b62	2.3346791
35	0xbf122b82	-0.5709764
36	0x3e52a42d	0.2057044
37	0xbea614cb	-0.3243774
38	0x3fa819c9	1.3132869
39	0x404bd4fe	3.184875
40	0x3fcaf757	1.5856732
41	0x3fdf9e7e	1.7470243
42	0xbef81b70	-0.48458433
43	0xbf037888	-0.5135579
44	0xbe444484	-0.19166762
45	0x3eaf179d	0.34197703
46	0x3f9c6f20	1.2221413
47	0x3f931b1a	1.1492646
48	0x3fae5e8b	1.3622602
49	0x3fb63c7c	1.4237208
50	0x3f2f7f35	0.6855348
51	0x3f982bbb	1.1888345
52	0xbf0f02a9	-0.55863434
53	0x4074a60b	3.8226345
54	0x3e9e50e4	0.3092109
55	0xbecc6855	-0.3992335
56	0x3ecfb8b7	0.40570614
57	0xbf88508c	-1.0649581
58	0x3f888f48	1.0668726
59	0x400953e0	2.1457443
60	0xbe8f1ef5	-0.27953306
61	0x3f9bbeee	1.2167642
62	0x3fbaea42	1.460274
63	0xc05c883d	-3.4458153

fc2.weight f4 [3, 64]
0	0xbf7b0f7f	-0.9807052
1	0x403b4876	2.9262977
2	0xc0ecf724	-7.4051685
3	0x417de291	15.867814
4	0xbc870020	-0.016479552
5	0xba53cc00	-0.00080794096
6	0xc00effd6	-2.234365
7	0x4150bb22	13.045687
8	0xbd5daa80	-0.05411768
9	0x3d8f5a92	0.06999697
10	0x41791387	15.567267
11	0xc0d11e51	-6.5349507
12	0x3d652248	0.055940896
13	0xc0303c95	-2.7536976
14	0xc0c4f48b	-6.1548514
15	0x3df838ec	0.12120232
16	0xc0132f66	-2.299768
17	0x3da63100	0.08114815
18	0xc0cfe662	-6.496873
19	0xbdc51538	-0.09623188
20	0xc049da74	-3.1539583
21	0xc081d29b	-4.0569587
22	0xc013a973	-2.3072174
23	0xc008f6ed	-2.1400712
24	0x3cb3b7a6	0.021938156
25	0xbd2f6d78	-0.042829007
26	0x3d85ad10	0.0652715
27	0x3d2377f9	0.039909337
28	0xc1295aaf	-10.58464
29	0x3dea63a1	0.11444784
30	0x41502d5a	13.011072
31	0x3ca75080	0.020424128
32	0x404cc1e4	3.1993341
33	0x407ae9fc	3.9205313
34	0x417090aa	15.035318
35	0x3c872b78	0.01650022
36	0xc089dc64	-4.308153
37	0xbd55f4b8	-0.052235335
38	0xbfeb5a68	-1.8386965
39	0x3ec09734	0.3761536
40	0xc02ab2ed	-2.6671708
41	0x40a85080	5.2598267
42	0xbdbd7fe0	-0.09252906
43	0xbd53b204	-0.05168344
44	0xbdb22a16	-0.086994335
45	0xc1227315	-10.153096
46	0xbfbf280c	-1.4934096
47	0xbfe6511b	-1.7993501
48	0xc007dfc9	-2.1230338
49	0xc007b8a2	-2.120644
50	0x3ee60e03	0.44932565
51	0xc0225478	-2.5364056
52	0xbcecab71	-0.028890343
53	0xc09d2fa3	-4.912065
54	0x4154c83b	13.298884
55	0x3d2b2014	0.04177864
56	0x41991a81	19.137941
57	0x4116a9fb	9.416499
58	0xbfd88482	-1.6915438
59	0x40d4f53c	6.654936
60	0x3dfcbe18	0.12340945
61	0xbfdeb6dd	-1.7399555
62	0xbf90bfd0	-1.1308537
63	0x4209bc18	34.433685
64	0xc013e1e4	-2.3106623
65	0xc0a27028	-5.076191
66	0xc0966f36	-4.7010756
67	0x41312d4c	11.073559
68	0xbdf8501c	-0.12124655
69	0xbd308bb8	-0.043101996
70	0xc008c0c8	-2.1367664
71	0x413be519	11.743432
72	0xbdee3644	-0.11631444
73	0x3d791fa4	0.06082119
74	0x4158612e	13.5237255
75	0xbf89f608	-1.0778208
76	0xbde9811e	-0.1140158
77	0xc00ea9e3	-2.229119
78	0xc0ebe268	-7.3713875
79	0x3d6a8a78	0.05726096
80	0xc01c6a4d	-2.443988
81	0x3dace1ec	0.08441529
82	0xc00a8fa5	-2.1650174
83	0x3d5855f0	0.05281633
84	0xc07433f2	-3.8156705
85	0xc0e83129	-7.256001
86	0xc0056415	-2.0842335
87	0xc04c9eba	-3.197188
88	0xbda80c70	-0.08205497
89	0x3d9402f8	0.07227129
90	0xbb8352a0	-0.0040076524
91	0x3dcab0ae	0.0989698
92	0xc0880b61	-4.251389
93	0xbda04785	-0.07826141
94	0x4175c0ae	15.359541
95	0x3d1fa3d4	0.038974598
96	0x40e798f5	7.2374215
97	0x41112dee	9.073713
98	0x414194b2	12.098803
99	0xbdabd836	-0.08390848
100	0xbf80dc2d	-1.0067192
101	0x3d4f094c	0.050545976
102	0xc018dd83	-2.38852
103	0x40da3a3d	6.819609
104	0xc01ea297	-2.4786737
105	0x411b50b4	9.707203
106	0x3da22bca	0.07918508
107	0x3d8ed9a6	0.06975107
108	0x3dd1b018	0.10238665
109	0xc0e0b89a	-7.0225344
110	0xc0412f96	-3.0185294
111	0xc008265b	-2.127341
112	0xc037eb77	-2.8737466
113	0xbffe6092	-1.9873221
114	0x3e9fff10	0.31249285
115	0xc0110a09	-2.2662375
116	0x3ddc9026	0.10769682
117	0xc0d2212d	-6.56655
118	0x414a1548	12.630196
119	0x3df0622e	0.11737476
120	0x417c7778	15.779167
121	0xbfeefc84	-1.8670812
122	0xc00a127c	-2.1573782
123	0x4119a3ef	9.602523
124	0xbda7eb48	-0.08199173
125	0xc03e11a6	-2.9698272
126	0xc0508dd1	-3.2586558
127	0x41d6d496	26.853802
128	0xbfd7b8d9	-1.6853286
129	0xc0a4f715	-5.1551614
130	0xc06e36d1	-3.7220957
131	0x41268563	10.407565
132	0xb9e4d400	-0.000436455
133	0xbda7b54c	-0.081888765
134	0x3f4f164f	0.80893415
135	0x4137f855	11.498128
136	0x3d2b4084	0.041809574
137	0xbd5fb488	-0.054615527
138	0x416f0fa3	14.941318
139	0x408b3b49	4.350987
140	0x3df44a8a	0.1192828
141	0x40302f8d	2.7529023
142	0xc1150ef9	-9.316155
143	0xbd8ae8ae	-0.067826614
144	0x3f8fd6c5	1.1237417
145	0xbb960760	-0.004578516
146	0x40f48e7f	7.6423945
147	0xbda3b034	-0.079925925
148	0xc0b77178	-5.732601
149	0xc0ca70e5	-6.326281
150	0xc0749867	-3.821802
151	0xc0d14618	-6.5398064
152	0xbdbe4330	-0.09290159
153	0x3c6fb710	0.014631048
154	0x3de5fc06	0.1122971
155	0xbd96bb2e	-0.073599204
156	0xbf050852	-0.5196582
157	0xbcdef9ba	-0.027218688
158	0x41854214	16.657265
159	0x3d06053f	0.032719847
160	0x413b770b	11.716563
161	0x40e1e8b1	7.0596547
162	0x40f5f424	7.6860523
163	0x3dd5013e	0.104006276
164	0xc075f71e	-3.8432078
165	0x3de82ae2	0.11336304
166	0xc1101734	-9.005665
167	0x412ca50a	10.790293
168	0x3fcb58c2	1.5886462
169	0x41518966	13.096045
170	0xbd990720	-0.07472062
171	0xbd1c30c4	-0.038132444
172	0xbc4f2610	-0.012643352
173	0xc09ed534	-4.963526
174	0xc101ea28	-8.119667
175	0x3ee6d2a4	0.4508258
176	0xc0fd3ee7	-7.9139285
177	0x3f2c4db3	0.6730606
178	0xc08858fa	-4.2608614
179	0x3fc506e6	1.539273
180	0x3c262000	0.010139465
181	0xc0f6aa91	-7.708321
182	0x413915c6	11.567816
183	0x3b25b140	0.0025282651
184	0x4159d603	13.614749
185	0xc0bb40f0	-5.851677
186	0x3f0bd2d0	0.5461855
187	0x4136223a	11.383356
188	0xbd447578	-0.04796359
189	0xc10d63cd	-8.836865
190	0xc09cb830	-4.897484
191	0x41eed477	29.853743

fc2.bias f4 [3]
0	0xbff7eb4e	-1.9368684
1	0xbfbac089	-1.4590007
2	0x3f2ca674	0.6744149
