data/comparison_dqn_model_run_4.pth (torch, 3816 bytes, 4 tensors)

fc1.weight f4 [64, 2]
00000000: bc41 53c0 d1f9 1bc1 0e23 ab3f bf6a bd40
00000010: 7e47 0b3e 51a9 b8c0 9388 303f 4e0c e33e
00000020: 3aa8 ca3e 1efe 1ebf ff02 403f 2301 b7c1
00000030: 0117 9ec0 f0f9 a040 5cf3 a4be 3b56 b0c0
00000040: 59de c7bd 2d66 9c3f 9fa0 b43f ffa1 2241
00000050: 388c 9abd 1ecb e23e 3667 57be eeb1 b8be
00000060: 5fa9 6540 cfe3 e241 eb86 483e af5c 4441
00000070: 2d6e 023f 0d42 e0be 2160 a7be 9c14 263e
00000080: 9b2f 033f 0ab3 ad3e a8c1 f13d 88e8 91bd
00000090: a5db fcbf 1d0b 5ac1 f330 1940 84a6 99c1
000000a0: c02e 253d 6038 c8c1 8fd0 a33f c765 2941
000000b0: c181 293f a9d6 0f3f c94f 543f 7004 b341
000000c0: 22bd 81bf acee ac41 70d9 b23d 19e9 e5bc
000000d0: 2896 36be e2f3 9bbe 55af 2240 a5cc e2c1
000000e0: 36bf 073f 8153 7e3f e694 f13e 6020 34bf
000000f0: b3dc 8f3e c580 51c0 3341 3dbf f61c 52c2
00000100: 6613 a9bd 72e2 a13e 3fc6 1d3f 9eb3 9940
00000110: 6f47 c8be 9e42 603e 5972 fd3f bf88 d340
00000120: d534 1e3f cb9b 5f40 191d 3c3f 2f9f eec1
00000130: b5c6 733f fc3e 4bbf e829 9fbd 5bb1 a841
00000140: 9230 d8bf 20e0 4241 049b 66bf 4111 c2c0
00000150: 225d a33e 5782 a43f 081e 04c0 5d9e 6f41
00000160: 347c 8c3e 0c1c 053e 6ee3 d23e 4e13 c3be
00000170: a344 213f 34be d8be f6e8 233e f785 c83e
00000180: 1869 56be 8675 d33e cc34 06c0 9024 fb40
00000190: 4acb ac3e 62ac c5be baa6 ebbe 6ec6 05bf
000001a0: 300c b63f 8a22 3541 346a f9be 51a7 edbe
000001b0: cdf3 39c0 98a9 23c0 6243 97be 3401 43c0
000001c0: 709c f13e fc81 fb41 68db d73d 4797 bdbe
000001d0: a034 3e3e dcf8 163e caa9 79be f2e0 ce3e
000001e0: 958a e9bf 3d89 8341 47e3 4d3d 410b ad41
000001f0: 30c2 903e 901e 16bf 0014 043d 1873 693e
-3.300887 -9.74849 1.3370073 5.9192805 0.13601491 -5.7706685 0.68958396 0.44345325
0.39581472 -0.621065 0.7500457 -22.875555 -4.940308 5.03051 -0.32216918 -5.510526
-0.09759206 1.2218682 1.4111518 10.16455 -0.07546276 0.4429559 -0.21035466 -0.3607325
3.5884626 28.361235 0.19582717 12.272628 0.50949365 -0.43800393 -0.32690528 0.162188
0.51244515 0.33925658 0.11804515 -0.0712443 -1.975453 -13.627713 2.3936126 -19.206306
0.040327787 -25.027527 1.2798022 10.587348 0.66213614 0.5618692 0.8293424 22.377167
-1.0135844 21.616539 0.08732879 -0.028065251 -0.17830718 -0.30459505 2.5419514 -28.349924
0.5302614 0.99346167 0.47183913 -0.703619 0.28098068 -3.2734845 -0.7392761 -52.528282
-0.08255653 0.31618077 0.61630625 4.803176 -0.39117 0.21900412 1.9800521 6.6104426
0.61799365 3.4938838 0.734819 -29.827726 0.9522508 -0.7939298 -0.07771665 21.0866
-1.6889822 12.179718 -0.90080285 -6.064606 0.31906992 1.2852277 -2.064333 14.976163
0.2743851 0.1299898 0.4118914 -0.38100666 0.62995356 -0.42332613 0.16006836 0.39164707
-0.20938528 0.413006 -2.0969725 7.848213 0.33748847 -0.3860808 -0.4602564 -0.52255905
1.4222469 11.320932 -0.4871384 -0.46416715 -2.9055054 -2.5572262 -0.29543597 -3.0469484
0.47189665 31.438469 0.10539895 -0.37029478 0.18574762 0.1474337 -0.24381176 0.40405995
-1.8245417 16.44201 0.050265577 21.630495 0.28273153 -0.58640385 0.032245636 0.22797811

fc1.bias f4 [64]
00000000: 4e73 60c0 f3c8 2840 a43f 9e3f 2955 d1be
00000010: 96e2 0fbf 8e15 ff3e 7b5c 16c0 1ecb cf3f
00000020: a12e 25be 5193 bd3f aaf6 b4be 5f4e e7be
00000030: 27f5 6f3f e172 cb3f 5d31 aabe 4013 16bf
00000040: 6e93 aebe 6095 43be 8860 a0bf 7888 a43f
00000050: 1919 253e cf12 663f 10b2 c3be 2e98 2940
00000060: 48b8 9d3e 9ce1 0abe c488 a4be 15b7 94bf
00000070: d23b 0640 e091 f4be db7a 843f b6bb f33f
00000080: 706c febd 55fc ea3f 1ba0 f1be 90f4 ed3f
00000090: 543d 1340 da57 dabd 01c4 0e40 42ab ec3d
000000a0: bebe 363f 118e cd3f 6bb4 de3f a989 ccbe
000000b0: 125d 28bf 0c9b 10bf 6f12 06bf 8b16 45be
000000c0: 29b6 95be f268 adbd a28d 28bf ae8c 30bf
000000d0: 8eac 903f 3df4 1ebf 55a4 9bbf 811f f43f
000000e0: ad0b 02bf 04f8 bebe 3053 cebd 40a7 2abf
000000f0: dab3 3d3f 7f1f 2cbe ac62 64be 227c d2be
-3.5070376 2.637265 1.2363172 -0.40885285 -0.5620512 0.49821132 -2.3493946 1.6233861
-0.16131069 1.4810582 -0.3534444 -0.4517698 0.9373345 1.5894433 -0.33240786 -0.58623123
-0.34096855 -0.19099951 -1.2529459 1.2854147 0.16122855 0.8987245 -0.38221788 2.6499133
0.30804658 -0.13562626 -0.32135594 -1.1618372 2.0974011 -0.47767544 1.0349993 1.904166
-0.124230266 1.8358256 -0.47192463 1.859026 2.3006182 -0.106612876 2.2307131 0.11556102
0.713848 1.605898 1.7398809 -0.39948776 -0.65767014 -0.5648658 -0.5237188 -0.1924688
-0.2924054 -0.08467282 -0.65841115 -0.6896466 1.130266 -0.6209143 -1.2159525 1.9072114
-0.50799066 -0.37298596 -0.100744605 -0.66661453 0.74102557 -0.1680889 -0.22303265 -0.4111033

fc2.weight f4 [3, 64]
00000000: 3971 f1c0 ceef c6bf 2557 fcbf 803f c8bd
00000010: ca1b 9e3d 192f 8d41 046b 3441 4c1d 00c0
00000020: bcf0 58be 52c3 18c0 8e90 f5bd aeff 913d
00000030: 9ce6 93be 0df4 223f ba29 83bd e039 cf3b
00000040: 22a4 c9bd 409f c33d 1dc7 8e41 2256 8641
00000050: 168b af3f 08af 15c0 f276 98bd e884 aebf
00000060: 27f2 02c0 8208 fdbd 34fe f93c 139e fc40
00000070: cf93 fbbf 6837 5c3d 1dda d8bf 306e 5ec0
00000080: e419 73bc 6264 c3bf 04d7 94bd 3203 40c0
00000090: 09ee f5bf fff4 19c1 d6d0 0bc0 ee7a 3541
000000a0: f436 5b3d b231 03c0 764b e2bf dbcf cfc0
000000b0: aa88 a73d b231 9abd 82d4 f53d d8b8 853c
000000c0: 16aa c73d e076 26c0 9885 d8bc aa41 9bbd
000000d0: 5be4 0ac0 7cb8 d73c 3f3b e7c0 6272 fcbf
000000e0: 3c69 c241 509f 423c 28ca d2bc 46e7 b0bd
000000f0: 266e 403f 856c 0341 c0fb bcbc 2aac 85bd
00000100: 91fc cdc0 d578 a8be b184 acbf badf f5bd
00000110: 9870 723d 993e 9641 a654 5141 c045 e4bf
00000120: e660 5bbe 5316 16c0 3883 3c3d e83a 313d
00000130: 8045 b240 96ba 21bf 6353 5a3d 3213 87bd
00000140: 1b0f 573d d0ac a83d 8d54 4d41 3fe1 1941
00000150: a466 4540 fe1c 4fc0 d874 07bd 362e 35c0
00000160: 9217 b340 6345 e2ba 2863 7cbd b1a0 3541
00000170: db9a b6bf ded6 ce3d a88f 91bf e813 aac0
00000180: aff2 3bbd 709f 85bf a0f0 3fbe 14f8 0bc0
00000190: a1e3 b3bf 05be 013f ab8b c0bf d9ea a040
000001a0: 6052 78c0 c632 02c0 113b b3bf 02c1 0ec0
000001b0: 5019 a9bc 7430 82bd 9631 e53d 14d0 333d
000001c0: f0b6 32bd 5b8d f8bf a0ba 423c ec4c 68bd
000001d0: 3657 26c0 7802 19bd 57a2 93c0 9069 efbf
000001e0: eb3a b741 f4ed 20bd 564f 9abd f05d aabc
000001f0: 7a4a 5cc0 9541 e740 189a c5bc c04d 153d
00000200: fa07 d8bf a373 3fc0 3ca2 823e f078 883c
00000210: 5099 88bc 92cc 7141 8cc9 ac40 216d 4d3e
00000220: cbb2 0cbe 81f7 f3bf e414 7bbd 5c21 04bd
00000230: 7ddb 1b41 8b9c 3dc0 a61d e73d 14fe 9bbd
00000240: 6824 533d 1242 9bbd c3b8 5441 8f8d 2f41
00000250: 4128 ec40 2fe7 babf 107c 16bc 5003 d2c0
00000260: cb34 2441 833b 18bd a099 41bc 3ac6 be41
00000270: d5ed 72bf d053 9a3c 4e85 9f3b acb0 30c1
00000280: 38c5 e4bb 6b15 afbf 96d1 82be 51c2 a3bf
00000290: c29c a4bf 78c8 3a41 a19d 7cbf 920a a7c0
000002a0: b4bf 45c0 8489 df3e cc16 56bf 8930 8940
000002b0: 2418 7e3d 1e89 8bbd 7c74 17bd 17ff 1e3d
000002c0: 94e9 f23d 56ac e73f c060 84bd 4889 64bd
000002d0: f47f d6bf be9f aa3d aa11 88bf 0399 2abe
000002e0: 72e9 5b41 800a 6b3b 3a66 d4bd c877 99bc
000002f0: 6ecc 80c0 da1f 5141 dafb efbd 20c3 65bc
-7.545071 -1.5541933 -1.9714094 -0.09777737 0.07720144 17.647997 11.276127 -2.0017881
-0.21185583 -2.3869214 -0.11990462 0.07128845 -0.28886878 0.6365364 -0.06404443 0.006324038
-0.09845759 0.09551859 17.847223 16.792057 1.3714321 -2.338808 -0.07444562 -1.363431
-2.0460298 -0.12355138 0.030516721 7.894296 -1.9654483 0.053763777 -1.6941563 -3.4754753
-0.014837716 -1.5265009 -0.072675735 -3.000195 -1.9213268 -9.6223135 -2.1846213 11.342512
0.053519204 -2.0499082 -1.7679279 -6.494123 0.081803635 -0.0752901 0.12003423 0.016323492
0.09749238 -2.6010056 -0.02643089 -0.07580884 -2.1701877 0.026333086 -7.225982 -1.9722407
24.301384 0.011878803 -0.025731161 -0.08637862 0.75168073 8.213994 -0.023069263 -0.06526978
-6.437081 -0.32904688 -1.3477994 -0.12005563 0.05918941 18.780565 13.083166 -1.7833786
-0.21423683 -2.3451126 0.046023577 0.043269068 5.570984 -0.6317533 0.05330218 -0.06595458
0.05250464 0.08236086 12.833142 9.617492 3.0843897 -3.2361445 -0.033070415 -2.8309455
5.596627 -0.001726311 -0.061618 11.351731 -1.4266008 0.100995764 -1.1371965 -5.31493
-0.045885738 -1.0439281 -0.18744135 -2.1870165 -1.4053842 0.5068057 -1.5042623 5.028668
-3.8800278 -2.034349 -1.4002401 -2.2305303 -0.020641953 -0.06356898 0.111910984 0.04389961
-0.043631494 -1.9418138 0.011885315 -0.056713983 -2.599073 -0.03735587 -4.613567 -1.870409
22.903769 -0.03928943 -0.075346634 -0.020796746 -3.4420457 7.2267556 -0.02412133 0.0364511
-1.6877434 -2.991433 0.255144 0.01665923 -0.016674668 15.112444 5.399603 0.2006116
-0.13740079 -1.9059907 -0.06129922 -0.032258376 9.741086 -2.9626796 0.11284952 -0.07616821
0.05154839 -0.07580961 13.295108 10.97206 7.379914 -1.4601802 -0.009184852 -6.5629044
10.262889 -0.03716613 -0.011816412 23.84679 -0.9489415 0.018838793 0.004868186 -11.043133
-0.006981518 -1.3678411 -0.25550526 -1.2793676 -1.2860339 11.673943 -0.9867802 -5.2200403
-3.0898256 0.43659604 -0.83628535 4.2871747 0.06203474 -0.068132624 -0.036976323 0.03881749
0.11860958 1.8099468 -0.06463766 -0.055794984 -1.6757798 0.0833125 -1.0630391 -0.16659932
13.7444935 0.0035864413 -0.10371061 -0.018733874 -4.024955 13.070276 -0.11717959 -0.014023572

fc2.bias f4 [3]
00000000: fa99 1dc0 e664 f1bf d3c0 9fbf
-2.462523 -1.8858917 -1.248072
